model/best_model.pth (torch, 180679 bytes, 10 tensors)

conv1.weight f4 [6, 1, 5, 5]
000000 76 4a ba bd 18 05 23 3d b0 f4 ab 3d 70 2d 7d 3d
       -0.090962335 0.03979978 0.0839628 0.06181091
000010 1f 47 b8 3e e0 49 1e 3e bb 40 69 3d 9e d1 91 be
       0.3599176 0.15457869 0.056946497 -0.28480238
000020 b9 47 72 be 08 76 8b 3e 35 aa 5d 3e 8e 74 14 be
       -0.23660173 0.27238488 0.2164696 -0.14497587
000030 20 4b d2 be b9 a6 6d be 35 6d 93 3e fe 68 08 3e
       -0.4107294 -0.23208131 0.28794256 0.13321301
000040 bd 7b 0f 3d 8d c8 24 be 87 da 08 3e 0f a4 a3 3b
       0.035030115 -0.16092129 0.13364612 0.0049939225
000050 96 bd 2b 3e 16 a1 a6 3d 7e 02 95 3d 3d 86 1f be
       0.1677154 0.081361935 0.07275866 -0.15578552
000060 be 47 b2 3d f3 cb 9b 3d 5d 05 46 bd ae 59 f2 bd
       0.0870509 0.076072596 -0.04834496 -0.11833511
000070 32 c4 23 3e 11 17 aa bd f6 73 72 bc fd fd eb bc
       0.15992811 -0.08305181 -0.014798155 -0.028807634
000080 e2 35 4f 3e 51 c0 23 3d c2 23 86 3d c5 b2 20 bd
       0.20235398 0.03997833 0.06549789 -0.039232988
000090 2c f5 8c bd 86 b3 25 3e 75 cc de 3e 00 3d 80 3e
       -0.068827 0.16181764 0.43515363 0.2504654
0000a0 ec d3 9b be f1 8d 83 be 04 60 81 be be e0 2b bd
       -0.3043512 -0.2569423 -0.25268567 -0.041962378
0000b0 7b f3 77 3d d8 bd 81 bc d5 d1 a1 be 5d 3e c7 be
       0.060534935 -0.015837595 -0.31605402 -0.38914767
0000c0 e3 e2 d1 be 4d 4b 84 3c 0e 69 8d be 35 54 08 3e
       -0.40993413 0.016149187 -0.27619213 0.13313372
0000d0 17 87 56 3e 09 1b 97 3c b5 e3 35 3c e9 48 81 3d
       0.2094997 0.018445509 0.011101653 0.06312735
0000e0 82 98 79 3e c0 a0 d5 3d 8a 77 9c bd bf 5a 00 be
       0.24374583 0.10431051 -0.07639988 -0.12534617
0000f0 e2 1e a7 3d 36 d8 8e 3e 50 f3 a7 bd 94 cf 0d be
       0.08160187 0.2789933 -0.08200705 -0.13848716
000100 81 2c 02 be 54 52 a5 3c 14 7f a8 bd 31 73 20 bd
       -0.1271229 0.020180859 -0.08227363 -0.039172355
000110 08 fa 94 be a5 6f 37 bd d1 6c db 3d 62 fa 63 bd
       -0.2909701 -0.044784207 0.107141145 -0.055658706
000120 40 d9 a1 bc fe 42 87 3c 66 67 8a 3d ae f9 c1 3c
       -0.019756913 0.016511437 0.06758003 0.023678627
000130 28 1f a4 bc 55 4c 5c be 2b e9 26 be 94 ad 01 3d
       -0.020034388 -0.21513493 -0.16299884 0.031659678
000140 6b 23 c6 bd eb dc cb 3e 85 3d dd 3c ff 83 8f 3d
       -0.09674724 0.39816985 0.027006874 0.07007598
000150 a7 aa 82 be c9 bc 3d be d3 9f 86 3d 96 98 00 3e
       -0.25520822 -0.18529047 0.06573453 0.12558207
000160 bb 02 cb 3d b2 6b 86 be ab cb 2c bc 6f 03 0e 3e
       0.0991263 -0.2625404 -0.010546605 0.13868497
000170 57 7e f5 3d 82 7a 4a 3e b2 8e cb be c3 06 10 bc
       0.11986988 0.19773296 -0.39757305 -0.008790675
000180 7e fe ae 3d 10 6c 06 3e d9 5e 88 3e e0 6c 5f 3e
       0.08544634 0.1312716 0.26634863 0.21818876
000190 63 0b a4 bd e5 25 60 bd 16 61 37 3e 38 a2 81 3d
       -0.08009984 -0.05472364 0.17908129 0.06329769
0001a0 00 d7 fb 3d e3 b8 02 be 1c 18 a2 3c 17 b3 e5 bc
       0.12296867 -0.12765841 0.019786887 -0.028039498
0001b0 39 de 04 be 17 16 67 be 3f 6a 3e 3d a1 21 96 3b
       -0.12975396 -0.2256702 0.046488043 0.0045816456
0001c0 b5 01 4c be 2b 56 be be 50 49 76 be e9 1a 6d bd
       -0.19922526 -0.37175116 -0.24051404 -0.05788699
0001d0 3c af 38 3e 5a db c5 bd d8 c0 dc 3d 1a 2b 2e 3a
       0.18035597 -0.096609786 0.107789695 0.0006643996
0001e0 38 92 3b 3d 86 52 89 3c d0 3b 7a 3e e9 3e 83 3e
       0.045793742 0.016762983 0.24436879 0.25633934
0001f0 9c f1 75 3e 4f 06 cf 3d c3 f6 1a 3c 69 52 5e 3e
       0.24017948 0.10108625 0.009458247 0.21711124
000200 1e 86 b2 3d 0c da 13 ba d5 68 d7 3c fd de 10 be
       0.08716987 -0.00056400965 0.026295105 -0.14147563
000210 05 7f 0b be da 12 16 be bc c7 bf 3d 9d 22 98 bd
       -0.13622673 -0.14655629 0.09364268 -0.07428477
000220 7c f4 a0 3c 99 53 18 3e 9e 52 87 3e 20 ee c4 bc
       0.01964783 0.1487564 0.2643022 -0.024039328
000230 5c a8 cb 3c ce 55 fc 3d 9e 08 2c 3e 5e fd 10 3e
       0.024860553 0.123210534 0.16800162 0.14159152
000240 9c a5 d6 bc e1 ca 23 be 01 46 01 bf cf a4 c7 be
       -0.026202016 -0.15995361 -0.5049744 -0.38992926
000250 32 d5 e0 be c0 c2 85 be
       -0.43912655 -0.26125145

conv1.bias f4 [6]
000000 83 d7 09 bf 83 f2 f1 bd 03 39 08 be a1 d4 80 be
       -0.5384447 -0.118138336 -0.13302998 -0.25162223
000010 81 8e 09 be 5c 83 a3 3b
       -0.13433267 0.0049900245

conv2.weight f4 [16, 6, 5, 5]
000000 df 96 24 3e d4 ce 00 3d 25 90 85 ba 27 0b 0f be
       0.16073178 0.031447247 -0.0010190053 -0.13969098
000010 6e 1c 82 3d 51 65 32 be ce ae da bd 10 68 05 3e
       0.06353079 -0.17421462 -0.106778726 0.13027978
000020 46 8c fb bd fa ab bd 3d d6 7d c4 be 52 d9 15 be
       -0.122826144 0.092613176 -0.38377255 -0.14633682
000030 4b 44 d0 be 7c 4e 05 bd b9 fb 01 be 45 1b 2d be
       -0.40677103 -0.03254555 -0.12693681 -0.16904934
000040 76 33 6d 3e 3d a6 d9 3d 4f be 33 3d cf bb 5c be
       0.23164162 0.106274106 0.043882664 -0.21556018
000050 1a 8c b0 3e 32 3d 20 3c 1d 4d 84 3e b8 6e 44 bd
       0.3448189 0.009780215 0.25840083 -0.047957152
000060 ac bf 35 be 3b 70 2c bc 0d e8 66 bd 4f fd c0 3d
       -0.17748898 -0.010524805 -0.056373645 0.09423315
000070 b8 1c 85 3d cf 34 88 3d 30 b9 a0 be 5f 84 06 bf
       0.06499618 0.066506974 -0.31391287 -0.5254573
000080 df bf af 3c bf 53 e5 3b 67 4a 85 3e 34 59 7e bd
       0.021453796 0.0069985087 0.26033327 -0.06209679
000090 d3 72 1d bd 3d 68 6d 3e 35 65 b0 bb 79 9e e5 be
       -0.038439583 0.23184295 -0.0053831586 -0.44847468
0000a0 d6 e1 5e be b4 08 eb bd f4 4f 44 bd 7a 80 40 be
       -0.21765837 -0.11476269 -0.04792781 -0.1879901
0000b0 59 2c e0 bb 83 e8 07 3e 3f 15 cc 3b bf a8 2b bd
       -0.006841224 0.1327229 0.0062281187 -0.041908976
0000c0 54 a4 25 bd b7 3c 51 3e c3 4b 55 3e dd 3c ae 39
       -0.04043992 0.20433317 0.20829682 0.00033233213
0000d0 99 c9 25 bc 75 fc d1 bd ad 44 a8 3e c2 c6 a6 bc
       -0.010118865 -0.102532305 0.32864895 -0.020358447
0000e0 d9 d9 ac be 16 32 c2 be 1c e0 d8 be 47 0e 06 3c
       -0.33759955 -0.37928838 -0.42358482 0.008182115
0000f0 d1 f4 01 3c dc 13 0f be 90 24 ad be cb b8 93 be
       0.007931904 -0.1397242 -0.33816957 -0.28851923
000100 3b d1 01 bf f9 97 2e bd 71 df d1 bd 39 1a b3 bd
       -0.50709885 -0.0426254 -0.10247696 -0.08745236
000110 bd 44 6b be 53 36 41 bd c6 5e 12 be 95 fd af bd
       -0.2297544 -0.04717095 -0.14293966 -0.08593289
000120 cd 1e 26 bd 84 21 ea 3d f8 0f f2 3a 5b 18 bc bd
       -0.040556718 0.11432174 0.0018467894 -0.09184333
000130 14 a9 56 be f8 2f 6d be 8c cf fa be cf e1 12 bf
       -0.20962936 -0.2316283 -0.4898647 -0.57375807
000140 e1 fb 10 be d3 67 1d 3d 58 a2 d9 3c a7 36 19 be
       -0.14158584 0.038429093 0.02656667 -0.14962254
000150 69 a6 fd be db a5 54 be ed c9 56 bd 50 f1 0e 3e
       -0.49541023 -0.20766394 -0.052438665 0.13959241
000160 f0 ec 6b 3e b6 d1 9f bd 2d 2c ab 3d d2 ef 59 3e
       0.23039603 -0.07803671 0.08358035 0.2128289
000170 4f 95 81 3e 7e a0 38 3e 85 37 31 3d f2 ae ac 3d
       0.25309226 0.18029973 0.04326584 0.08431806
000180 45 5a 48 3c 98 bc a0 bd 6e 71 5f 3e 65 c9 be bd
       0.012228553 -0.078484714 0.21820614 -0.09315757
000190 2d 56 0c 3e 07 c1 29 3d 33 0d a7 be a5 f4 15 bf
       0.13704748 0.04144385 -0.32627258 -0.5857642
0001a0 26 b6 04 bf cf 27 9a 3e 71 59 04 3f 6f 36 9b 3e
       -0.51840436 0.30108497 0.51698977 0.30314967
0001b0 d7 0b 10 be 45 64 46 be 3b 39 5e 3e 4a 83 21 3e
       -0.14067017 -0.19374187 0.21701519 0.15772739
0001c0 f5 83 09 3e 03 e9 18 bd a3 c9 af 3c f4 7c 0b 3d
       0.13429244 -0.037331592 0.021458453 0.03405471
0001d0 fc 6f b7 bd 30 82 8b bd 7e 2b 80 bd f1 fb c1 ba
       -0.08956906 -0.06811941 -0.062582955 -0.0014799816
0001e0 08 e0 33 3e 0b 1b 08 bd 43 0a 49 bc d3 d9 b2 bd
       0.1756593 -0.033228915 -0.012270513 -0.08732953
0001f0 66 16 bc be 75 76 dc 3e 78 be f0 3c 78 82 d9 3d
       -0.3673584 0.43059126 0.029387698 0.10620588
000200 bc 73 62 3c db 02 20 3e af 37 66 be 0b ec 30 be
       0.013821539 0.1562609 -0.22482179 -0.17277543
000210 cf 05 02 be d2 ea d9 be 0d ae 2d 3e 0a 1c b2 bd
       -0.12697528 -0.42561966 0.16960926 -0.08696754
000220 2f 83 94 3d b9 4c 83 3e a5 86 04 3e 3e 49 ab be
       0.07251584 0.25644472 0.12941988 -0.33454317
000230 71 5e 26 3e f0 d7 70 3d 2f 16 53 be 45 ab 8b be
       0.16246964 0.058799684 -0.20613931 -0.27279106
000240 14 84 37 be 85 97 56 be 81 51 0d 3e 48 91 50 3e
       -0.17921478 -0.20956238 0.13800623 0.2036792
000250 f4 86 05 3e 97 95 d4 3d bc c1 b7 3c 94 bc a0 3e
       0.13039762 0.103800945 0.022431247 0.31393874
000260 b2 a3 e9 3d 73 39 a7 be fa 0b 83 bd c7 2d 2a be
       0.114081755 -0.32661018 -0.06398769 -0.16619025
000270 39 bf 8a bc 23 31 46 bd 86 e1 65 be 9c f0 e3 3d
       -0.016936885 -0.048386704 -0.22449312 0.11129877
000280 4d 1b a7 bd 36 12 1e bd 8d fb a6 bd b0 5a 5b bc
       -0.08159504 -0.038591586 -0.08153448 -0.013388321
000290 53 ee 47 3e 7a ed 93 bd 8b c4 46 be 07 a6 10 3f
       0.19524507 -0.072230294 -0.19410913 0.5650334
0002a0 7c ed 21 be 9d 14 8b 3e a2 e9 b4 bd fe b4 e7 3d
       -0.1581325 0.27164164 -0.088336244 0.113138184
0002b0 a6 b7 66 3e cc f1 36 be 65 1d 6d bd 9b ff c0 be
       0.22530994 -0.17865676 -0.05788936 -0.37695011
0002c0 f9 15 f8 3d d3 10 b7 bd f2 c1 12 bf bd ca e7 be
       0.12113566 -0.08938756 -0.5732719 -0.45271865
0002d0 2e d2 82 3b 72 89 ff 3d f0 16 7f be 94 57 fd be
       0.0039923405 0.124773875 -0.24911094 -0.4948088
0002e0 88 0e d0 3d 91 2f f7 be 25 76 89 be f0 5d 52 3d
       0.101590216 -0.48278478 -0.2684795 0.051359117
0002f0 f9 c8 90 be 1f 30 b2 be 9d 79 08 3d 87 10 d8 3c
       -0.2827833 -0.34802338 0.033319104 0.026375068
000300 1d 04 df 3d c8 06 13 3e f0 9f 38 3e a3 7a 0a bf
       0.108894564 0.14358056 0.18029761 -0.5409338
000310 9e a1 8b 3e 74 76 a9 3e 03 fc 03 3e 06 c0 56 bd
       0.27271742 0.33098185 0.12889104 -0.05242922
000320 ff 61 9d 3d 7f a5 eb bc 9e a5 c8 bd d1 3e 9c bd
       0.07684707 -0.028765438 -0.09797214 -0.07629169
000330 94 da ef bd 9e 3e ce bd fd d6 f6 bd e1 2b 8a be
       -0.11711612 -0.10070537 -0.120527245 -0.26986602
000340 eb ad c5 ba 4f d4 ba 3b 7c 1f bb be 47 33 4a be
       -0.0015081739 0.0057015787 -0.36547458 -0.19746123
000350 6c a0 94 bd 0e 93 fe bc 13 1c 26 3d 5c d8 04 3d
       -0.072571605 -0.03107598 0.040554117 0.0324329
000360 fe 9b 0f 3e 34 ed 9b be e6 68 78 be 7e 9d f2 bd
       0.1402435 -0.3045441 -0.24258766 -0.118464455
000370 7b 07 0f be 14 2c 2a bd 85 fd 2c bd e9 45 a3 bd
       -0.13967697 -0.041545942 -0.042233963 -0.07972319
000380 9e 3a 3b 3d 69 e3 45 bc dc e0 c6 be 54 e9 9d 3d
       0.0457102 -0.012078145 -0.3884343 0.077105194
000390 6d e4 22 3e bc 99 b7 3d ce 08 99 3c 7c ed 1b bf
       0.1590745 0.089648694 0.018680956 -0.6090925
0003a0 ec bc aa 3d 88 9c 17 bd fa 22 9b 3d 53 1c 92 3c
       0.08336815 -0.037014514 0.075750306 0.017835772
0003b0 d3 98 cb be e5 19 18 bd aa cf fb 3d 51 93 90 bd
       -0.39765033 -0.03713407 0.12295468 -0.070593484
0003c0 ac b9 67 be 8b 16 e1 bd 3f d2 7f be 39 07 1d 3e
       -0.22629422 -0.10990628 -0.24982546 0.15334786
0003d0 02 b3 94 3d a5 69 a7 bc 38 4d b8 3d 37 bc b3 be
       0.072607055 -0.020436117 0.08999103 -0.35104534
0003e0 61 de 1a 3e 20 32 53 3e a3 fc 76 be de 4a 77 be
       0.15123893 0.2062459 -0.24119811 -0.24149653
0003f0 18 b6 38 be a9 e0 23 3e 86 46 42 3e 85 8a 8b 3e
       -0.18038213 0.1600367 0.18972215 0.2725412

conv2.bias f4 [16]
000000 22 63 12 be 01 7c 5e ba 1d 1f 4d be e0 32 2d be
       -0.14295629 -0.0008487106 -0.200314 -0.16913939
000010 1a 32 3b 3e 6f 29 b2 be 51 03 b3 bc fa b8 94 3d
       0.18280831 -0.34797236 -0.021852167 0.07261844
000020 22 a7 22 be 3e 56 c5 3d 43 6a 62 bd c3 09 8d 3d
       -0.15884069 0.0963559 -0.05527712 0.068866275
000030 2a 7a 63 bc bb 10 35 be ac 33 cd bd ef 8f 95 bd
       -0.013884107 -0.17682163 -0.10019621 -0.07302844

fc1.weight f4 [120, 256]
000000 08 0a a7 3e d0 c6 ab bd e7 ce 2c 3c 6c d5 04 be
       0.3262484 -0.0838753 0.010547376 -0.12972039
000010 e1 7e 51 3e bf 62 47 3e 42 60 b5 bd 62 7f 04 3e
       0.20458557 0.19471262 -0.0885625 0.12939218
000020 49 a4 03 be d3 16 24 3e 3f 17 4c 3e f7 8a 3e bd
       -0.12855639 0.16024332 0.19930743 -0.046519246
000030 41 da 38 be ce 51 2c bd 92 d5 ab 3c 26 53 9f 3e
       -0.18052007 -0.042070203 0.020975862 0.31118125
000040 f6 14 8e be 99 f7 91 be 18 3a 2c be 9e e8 c8 bd
       -0.27750367 -0.28509215 -0.16819036 -0.09809993
000050 7d e7 6e bd 73 6a 49 be 9d 55 17 be 8e e6 6c 3e
       -0.058326233 -0.19669513 -0.14778753 0.23134825
000060 04 bb 84 3e 3d 8c 21 3d 28 1d 7b 3e 22 35 2f be
       0.25923932 0.039440382 0.24522841 -0.17110112
000070 1d 6f c9 3e 85 af ed 3e c4 93 96 be 42 77 de be
       0.39342585 0.46422973 -0.2940961 -0.43450361
000080 a5 ec 7a 3e 43 11 d2 3e 46 db df bd 53 4d d5 be
       0.24504335 0.41028795 -0.10930495 -0.41660556
000090 87 df 26 3e e6 e5 07 3f c7 d5 92 be d7 88 c8 be
       0.16296206 0.5308517 -0.28678724 -0.391669
0000a0 49 64 b1 3c 57 33 d5 3c f9 4a ef 3c 62 cb 2a be
       0.021654265 0.026025457 0.029210554 -0.16679147
0000b0 a3 53 de 3d 89 78 d2 3d ab 83 59 be 29 a0 73 bd
       0.10855796 0.102768965 -0.21241634 -0.059478913
0000c0 da 31 23 3e f2 97 46 bc c3 6d 92 3d 34 19 39 3d
       0.15936986 -0.0121211875 0.07149842 0.04519005
0000d0 63 2f 20 be 83 af 01 3e 37 da ab 3d 69 52 42 3e
       -0.15643077 0.12664609 0.083912306 0.1897675
0000e0 6a 87 ff bd 86 df 00 3d cb 65 07 3e 69 37 2e be
       -0.12477 0.03146317 0.13222425 -0.17013325
0000f0 e2 a1 be 3d 03 c6 b0 bc 09 ea b3 be ba bb 93 be
       0.093082204 -0.021578794 -0.35139492 -0.28854162
000100 ff a5 ac 3e c3 a6 68 3e 95 06 e6 3e 77 8f 2a bd
       0.33720395 0.22719865 0.44926897 -0.041640725
000110 82 eb 74 3d b1 88 e7 3d 47 9d 04 3f b0 3c df bd
       0.05979491 0.11305369 0.51802486 -0.10900247
000120 25 62 b7 3e ed 3d f0 3e bf a0 d5 3d 94 e0 26 bf
       0.35817066 0.46922246 0.104310505 -0.6518643
000130 99 ba 73 bc 8c b7 38 3e 26 73 b4 be d4 e9 95 bd
       -0.014876031 0.18038768 -0.352441 -0.0731999
000140 07 dc 19 bd 92 2d 4d bb fd e6 84 3d 15 93 cc be
       -0.03756335 -0.003130768 0.0648937 -0.39955965
000150 ca 88 f7 bd 36 c1 f8 bc d5 42 8c 3d e3 9d 74 bd
       -0.12086637 -0.030365568 0.06848685 -0.059720885
000160 0b 55 82 3e e3 1d b6 3d e8 cc f1 bd a5 21 93 3d
       0.25455508 0.08892419 -0.11806661 0.071841516
000170 2c 4f 63 3e 38 56 38 37 06 dc 2a 3e 60 14 98 3e
       0.2219817 1.0987329e-05 0.16685495 0.29703045
000180 59 af 87 3d d6 c2 ab 3c 1a e4 fb 3d d5 40 f1 3e
       0.06625242 0.020966928 0.12299366 0.47119775
000190 8c 2c af 3d 95 cf a8 3d 2c 06 71 3e 85 44 8e 3e
       0.085534185 0.08242718 0.2353751 0.2778665
0001a0 09 f8 2f bf f9 b9 44 be 89 4e 53 3d 69 59 f0 bd
       -0.68737847 -0.19211568 0.05158857 -0.11735804
0001b0 9e 61 b3 be f7 11 5a be c3 af d2 be 08 66 41 be
       -0.35035414 -0.21295916 -0.4114972 -0.18886578
0001c0 fc 67 fb 3d 33 ee 1e 3e ca e7 be 3d 9c 27 0c 3d
       0.12275693 0.15520553 0.09321554 0.034217462
0001d0 88 f3 a8 bd 5c ed 31 3e 14 86 01 3e 39 dd ae 3e
       -0.08249575 0.17375702 0.12648803 0.34153154
0001e0 4e b3 11 ba 56 f8 30 bd 33 f9 bd bd b9 b2 32 3e
       -0.00055580295 -0.04320558 -0.092760466 0.1745099
0001f0 b2 85 ab 3c 7c 6a 03 be 43 50 29 be 55 06 08 bf
       0.020937774 -0.1283359 -0.16534524 -0.5313466
000200 58 ff 82 3c 0a 47 8c bd d1 31 96 bd 54 28 c0 bd
       0.015990898 -0.06849487 -0.073337205 -0.09382692
000210 2b 43 d4 be a2 a1 f1 be fd c8 05 be 82 d3 98 3e
       -0.41457495 -0.4719363 -0.13064952 0.29848868
000220 94 04 08 be 06 6d ed bd 1d a2 f2 3c 61 2c ce 3e
       -0.13282996 -0.1159306 0.029618317 0.40268233
000230 5d 1a 0d 3e bf ff 94 3d d8 40 1c 3e 19 25 85 3e
       0.13779588 0.07275342 0.15259111 0.26004866
000240 a7 dd 0d 3e 53 6a 92 3e c4 2d bc 3e 5a 21 64 bd
       0.13854085 0.28596744 0.36753666 -0.05569587
000250 42 8e 3a 3e 29 ba 76 3e d5 78 8f 3e 34 ba 46 3d
       0.1821833 0.24094452 0.28021875 0.04851742
000260 b3 9b 87 3e 77 3e c0 3e a3 82 44 3d 1e a1 c3 bd
       0.26485977 0.37547657 0.047976147 -0.09552215
000270 00 63 27 be 85 3d 05 3e 9e 5c 31 3e 26 30 7c bd
       -0.16346359 0.13011749 0.17320487 -0.061569355
000280 91 0d 3f 3d 78 85 a2 bd ce 6b b3 bc 79 2c 7d 3c
       0.046643797 -0.079356134 -0.021901991 0.015452498
000290 c0 4e 95 bb b0 ab 84 bc 28 6b e1 3c 28 91 0b 3c
       -0.004556507 -0.016195148 0.027516916 0.008518495
0002a0 80 d0 55 bb 00 31 c7 3a 34 df e0 3c 24 1b 71 3d
       -0.0032625496 0.0015197098 0.027450182 0.058863774
0002b0 97 2d 44 bd 28 c9 b4 bc 88 ce 1d 3d 92 05 2c 3d
       -0.04789504 -0.022068575 0.03852704 0.0419975
0002c0 7c 34 95 3e 49 18 07 bd 25 d6 7b 3d 70 b2 54 bc
       0.29141605 -0.032982145 0.06148352 -0.012981996
0002d0 98 e7 8f bb 03 6d bd 3d 17 e7 70 3e 37 7f 24 bd
       -0.004391622 0.09249308 0.23525654 -0.040160384
0002e0 c9 c2 c2 be cc e3 19 3e c4 1f e2 3d af 4d e4 3c
       -0.38039234 0.15028304 0.11041215 0.027869074
0002f0 a8 e0 f0 bd d0 b5 56 be 42 4f ee bd 2c 3a 29 3e
       -0.117616 -0.20967793 -0.11636211 0.16526097
000300 6a 77 05 bf 86 89 85 b9 32 c6 d6 3c cf 2a 27 3c
       -0.52135336 -0.000254702 0.026217554 0.010203077
000310 d3 32 03 bf 4a 64 9c be 2f ff 2e be 15 7c 09 be
       -0.51249427 -0.30545264 -0.17089532 -0.1342624
000320 23 de 88 be 54 16 b3 be 1d 18 14 3d 8b 0c d5 bd
       -0.26731977 -0.34977973 0.03615581 -0.10402783
000330 0a 01 1f 3e fe db 51 3e bc 3d 2f 3e 8a 1a 06 3f
       0.1552774 0.20494077 0.17113394 0.52384245
000340 34 ad ed bd a4 ce f4 bc 2f b5 80 bd d9 d5 be bd
       -0.116053015 -0.02988369 -0.06284558 -0.09318132
000350 a8 71 31 be 61 15 ea bb 54 49 75 3d 8c 51 87 bd
       -0.17328513 -0.007143662 0.059884384 -0.06607351
000360 6a dd b1 be 6c 69 8d bd ce 4f cc 3d 70 86 c8 3d
       -0.34739238 -0.06904873 0.09976159 0.09791267
000370 20 c9 8d bd f9 97 6c bd 72 c5 0e 3e 40 c8 3b 3e
       -0.06923127 -0.05776212 0.13942507 0.18338108
000380 ee 7b 9f 3d af 66 b2 3d d3 58 81 bd 12 41 96 bd
       0.077873096 0.087109916 -0.0631577 -0.0733663
000390 3a 6a 08 3e fb fc 07 3e d4 67 b8 3d dc 01 96 be
       0.13321772 0.13280098 0.09004179 -0.29298294
0003a0 5f 4e a4 be 29 59 7c be 94 db ad be 30 3d 73 be
       -0.32091042 -0.24643387 -0.33956587 -0.2375381
0003b0 1c 59 c3 be 19 9d bc 3d c1 03 5a bb 38 c7 0c 3f
       -0.38153923 0.092096515 -0.0033266398 0.54991484
0003c0 12 bc cc 3e 60 eb 77 3e 07 67 00 bd be 3c e5 bd
       0.39987236 0.24210882 -0.031348255 -0.11193226
0003d0 bf f0 8c bd bc 1e b0 3e 90 ba a3 3e 1d ed 10 bc
       -0.06881856 0.34398448 0.31978273 -0.008845595
0003e0 f8 d6 88 3e 44 ce e5 3e e0 a1 3f bd 81 11 fc bd
       0.26726508 0.4488393 -0.046785235 -0.12308026
0003f0 d1 81 f0 3d 5a 54 14 bf 41 61 d6 bd dc a8 26 be
       0.117435105 -0.5794121 -0.104677685 -0.16275352

fc1.bias f4 [120]
000000 6f 27 7a bd 3a 04 a0 3d 37 a9 c3 3d e6 1a 7f 3e
       -0.061072763 0.07813306 0.095537595 0.24912605
000010 56 08 49 3d 1e 70 01 3a b8 ee 74 bd 22 00 26 3e
       0.049080215 0.0004937666 -0.059797972 0.16210988
000020 ee 81 9c bd 45 4f 0f 3b 08 fc 6f 3c 9f 35 88 bd
       -0.076419696 0.0021867317 0.014647491 -0.066508524
000030 22 d3 b8 bd 0b d6 1f bc bc 30 7d 3b af 21 07 3e
       -0.090246454 -0.009755622 0.0038633784 0.13196443
000040 30 45 b8 39 26 5d 22 3e ce 3c 75 bd 8e bd 12 bb
       0.00035146764 0.15855846 -0.05987244 -0.0022390815
000050 77 3a 20 3d e3 96 61 3c 27 87 85 3d c5 e8 74 be
       0.039118256 0.013768884 0.06519919 -0.2391692
000060 cd 6f 42 bd b1 7a 63 bd fd b4 ff bc 80 a9 08 3a
       -0.047469903 -0.05553693 -0.031214232 0.0005213246
000070 b4 a9 da bd c2 17 01 3b b3 91 17 3e 05 ec e8 bd
       -0.106768996 0.0019697999 0.14801674 -0.11373142
000080 24 13 c0 bc 05 d4 5d 3d da be f6 bd 10 64 41 3d
       -0.023446627 0.054157276 -0.12048121 0.047214568
000090 4f 78 1a be a2 82 2b 3d 6a c8 6b bd d7 9c 70 3d
       -0.15084957 0.041872628 -0.057564177 0.058743324
0000a0 49 25 59 be 33 4c 3c 3d 0c 74 d9 bd 84 3e f7 3c
       -0.2120563 0.045971107 -0.10617837 0.030181177
0000b0 66 1e 51 be d1 b9 2a 3e 94 c3 85 3d 42 2d 0c be
       -0.20421752 0.16672446 0.06531444 -0.1368914
0000c0 b0 5b 92 3d 94 fd 86 3d b6 85 a8 bc 77 71 a8 bd
       0.07146394 0.06591335 -0.02057157 -0.08224767
0000d0 56 1b 9d bd d2 24 d2 3d 9e 0d 1d 3e 98 e8 99 bd
       -0.076712295 0.10260929 0.15337226 -0.07515067
0000e0 af b6 aa bd a9 8a 85 3d 47 b2 8b 3c 1e b2 1b be
       -0.083356254 0.06520588 0.017052783 -0.15204665
0000f0 fd 1b d7 3d 26 14 15 be 57 cd 26 be b4 87 5f bd
       0.10503385 -0.14558467 -0.16289268 -0.054572776
000100 ae 12 43 3d 52 a0 fc bd cf f5 3f 3d 44 f9 5f 3b
       0.047625236 -0.12335266 0.04686528 0.0034175673
000110 d0 b2 0e 3e fc 75 08 3e eb 1c ad 3c d3 d5 4d 3e
       0.13935399 0.13326257 0.021131953 0.20101099
000120 23 da ce bd 49 c2 8b bb 45 0c bb bd 18 23 72 bd
       -0.101002 -0.004265104 -0.091331996 -0.0591155
000130 62 59 81 bd d0 6c a4 bd 8c 0d 57 be 12 11 8d bc
       -0.063158765 -0.08028567 -0.21001261 -0.017220054
000140 39 6b 92 bc bd 98 c5 bd b3 26 69 bd 48 03 35 bd
       -0.017873393 -0.09648273 -0.056921672 -0.044192582
000150 f2 d4 20 3d 46 2e ae 3c 04 21 5a 3e 78 a4 88 bd
       0.03926558 0.0212623 0.21301657 -0.06671995
000160 8b 9e 17 bd d7 78 bb bc 1e 23 32 3d fe 60 dd bd
       -0.037016433 -0.02288477 0.04349052 -0.108095154
000170 b5 ac a0 bd 6f 23 17 3c 56 7b c0 bd 63 86 ed 3b
       -0.07845441 0.009224757 -0.093985245 0.007248686
000180 31 c1 26 bd c6 88 0f 3e 9c 9c 40 3d a8 f8 2b be
       -0.040711585 0.14017019 0.047024354 -0.16794074
000190 4b e7 3a 3e b4 49 c1 3a 77 eb 4a 3e ed 15 88 bd
       0.18252294 0.0014746697 0.19816385 -0.06644807
0001a0 74 8e b2 3d bc 52 22 bd 89 8d 8f bd 8e 6e 42 be
       0.08718577 -0.039629683 -0.070094176 -0.18987486
0001b0 07 62 c0 3d 45 a2 85 bd 42 17 16 3c 26 87 c9 3d
       0.09393697 -0.06525091 0.0091608185 0.09840231
0001c0 3c e0 73 bc d3 d2 31 be ca 2c e5 3c 15 e9 00 3d
       -0.014885005 -0.1736558 0.027975459 0.031472284
0001d0 6d c7 5d bd c6 c6 df bd 06 b0 21 3e 3c ed a6 bd
       -0.054145265 -0.10926585 0.15789804 -0.081507176

fc2.weight f4 [84, 120]
000000 37 e5 68 3d 7e 26 c0 bd 27 bf 84 3d 29 d4 e3 3d
       0.05685922 -0.09382342 0.06481772 0.11124451
000010 9e 17 78 bd f6 0d 47 be 26 70 49 bd b1 46 72 be
       -0.060569398 -0.1943892 -0.04917922 -0.23659779
000020 2e 09 da 3c 83 56 4d 3e 96 6c 46 be 60 fc 84 3d
       0.026615705 0.20052533 -0.1937736 0.06493449
000030 25 b1 65 3d 13 22 ac bd be 5e 1f 3f 4f 0e 8d bd
       0.05607714 -0.08404937 0.6225394 -0.06887495
000040 e6 87 78 be be dd a4 bd 96 c0 4b 3c 39 37 25 be
       -0.24270591 -0.080501065 0.012436053 -0.16134347
000050 b1 1e 6c bd 47 48 63 3e ba be 6f bd 07 5c 6c 3d
       -0.057646457 0.2219554 -0.0585315 0.05770495
000060 ab 29 0e bd b1 ec 3f 3e 47 d2 c7 3c 54 71 2d bd
       -0.034707706 0.18742634 0.02439226 -0.042344406
000070 15 93 8e bd 3a 72 3c 3c 91 22 5c bd a4 90 7b 3c
       -0.069616474 0.011501843 -0.053743903 0.015354309
000080 2a 93 c1 3e b6 95 84 3c 5f 7a 1d be cd e8 1f 3d
       0.3780759 0.016184669 -0.15378712 0.039040376
000090 55 81 1a 3e 9e 6d 34 3e fa d1 19 bc 4e 33 71 bd
       0.15088399 0.1761994 -0.009388441 -0.05888682
0000a0 6d f3 86 bd d0 21 03 3e 11 37 ad 3d 4e 00 48 3d
       -0.065893985 0.12805867 0.08457769 0.048828416
0000b0 11 e9 c7 3d 2e 03 92 3d 91 55 62 3d e6 b6 eb 3d
       0.09761251 0.07129513 0.055257384 0.115094945
0000c0 d8 80 f8 bc 0e db fb 3d 92 74 88 bc 95 62 9b bd
       -0.030334875 0.12297641 -0.016657148 -0.075871624
0000d0 33 1d 28 bd 09 65 76 3b 18 50 26 be 4c 02 69 3d
       -0.04104347 0.0037596843 -0.16241491 0.056886956
0000e0 75 50 1d be 44 a8 df 3d d5 47 1d bd 53 bf 03 3e
       -0.15362723 0.10920766 -0.038398582 0.12865953
0000f0 2f 44 d0 bd 34 18 7e 3c a1 93 8b 3c 93 56 d1 bd
       -0.10169255 0.0155087 0.017038168 -0.10221591
000100 d2 7c 0a bd 58 7c 9a 3c e2 d0 b9 3a f9 a8 e5 3d
       -0.033810444 0.01885812 0.0014176632 0.112138696
000110 21 ea ae bc 70 7f 67 3d a1 e6 59 be 61 88 a8 bd
       -0.021351876 0.05651802 -0.21279384 -0.08229137
000120 78 a1 2b 3d 1d d4 b0 bd 13 0e 86 bd 18 2f 0a bd
       0.041902035 -0.086342074 -0.06545653 -0.03373632
000130 c0 c6 2a 3e 44 f1 84 3d ed a4 38 3e 36 e5 44 bc
       0.1667738 0.0649133 0.18031664 -0.012017539
000140 dd 29 92 3d 43 0a c0 3d 54 a0 27 3b 3b b4 5f 3e
       0.07136891 0.09376957 0.002557774 0.21846096
000150 8b b7 85 3d 14 62 51 3d dc 25 1e bd 5c 6b 6a 3d
       0.06529149 0.051118925 -0.038610324 0.057231292
000160 3e 8d 40 3d 02 85 85 bd f4 d6 aa bd 2e 52 00 bd
       0.0470097 -0.0651951 -0.0834178 -0.031328373
000170 cd 75 96 3c 49 0f 63 3d 4b 6d b7 3d 9c 70 35 3d
       0.018366719 0.0554345 0.08956393 0.044296846
000180 38 d3 2e be 55 ba 2b 3e cf f6 8e 3d 5a ca 51 3d
       -0.17072761 0.16770299 0.06980669 0.051218368
000190 7d 9e 4b 3d 9c 86 7d bd 65 9e c7 bd 8c c3 2b 3e
       0.049711693 -0.06189595 -0.09747008 0.16773814
0001a0 06 be 0b 3e 13 c8 84 3c 80 3f f1 bd 87 0d 61 3e
       0.13646707 0.016208684 -0.1177969 0.21977817
0001b0 c5 e2 c9 bd f4 f2 22 bc 3e 27 84 be 6c bf 9a bd
       -0.09857706 -0.00994562 -0.2581119 -0.07556042
0001c0 c4 56 2e 3d 73 03 80 3d 67 63 a4 bd 99 f5 23 3c
       0.042563215 0.06250658 -0.08026772 0.0100072855
0001d0 70 5c 58 bd 66 40 24 bd 3a 0e b4 bd 3f 21 0a 3e
       -0.05282253 -0.040100478 -0.08791776 0.13489245
0001e0 ef 19 50 bd 0f a9 39 bc 46 c2 00 3d 14 41 81 3c
       -0.050805982 -0.011331811 0.031435274 0.015778102
0001f0 65 92 e9 3c 5f 2d 7b bd cb f7 56 bd c2 a9 a7 3d
       0.02851219 -0.061322566 -0.052482408 0.081866756
000200 a0 f9 ac 3d 79 dc 86 bd 45 0f 7c 3c 98 6d 3f 3d
       0.0844605 -0.065850206 0.0153845 0.046735376
000210 7f 89 2a bd 69 df 12 bd ef e4 ed bd 49 20 64 3d
       -0.041635033 -0.03585759 -0.11615931 0.055694852
000220 fe b1 df 3c 36 58 f2 bc 74 16 3f 3e 59 34 41 3e
       0.027306553 -0.029583078 0.18660909 0.18867625
000230 6a 97 cf bd dc b4 a9 bd 2c 4f 6d bd 71 05 70 be
       -0.10136302 -0.08286449 -0.057936832 -0.23439576
000240 d4 0a 4a bd c6 7a 6c bd 74 f1 b3 bd dc 02 c5 3d
       -0.049326733 -0.057734273 -0.08786288 0.09619686
000250 0a 0b 06 bc 6c db 52 bb 65 7a 7e 3d 08 fa 05 3e
       -0.008181343 -0.0032174243 0.062128443 0.1308366
000260 36 eb 0b be 41 da 4d bc 51 5a cb bd c2 3e 22 bd
       -0.13663945 -0.012564243 -0.09929336 -0.03961063
000270 f8 61 cb bc e7 7e e7 3d e5 e0 04 be e7 7f ae bd
       -0.024826989 0.113035016 -0.12976415 -0.08520489
000280 81 44 b5 3c d7 53 fa 3c 0e 6e e0 39 31 0a 6c 3c
       0.022127392 0.030557556 0.00042806607 0.014406727
000290 ef e2 34 bd 9f b7 66 bc fe 2f a7 3d 1e 50 ca 3d
       -0.044161733 -0.014081865 0.08163451 0.098785624
0002a0 63 ac 58 3a dd cd a3 bd 20 52 8c bd 79 b6 9f 3d
       0.0008265434 -0.0799825 -0.068516016 0.07798476
0002b0 b5 50 89 3b 19 80 94 bd 77 34 b2 ba 1f 2e 6c bd
       0.004190529 -0.07250995 -0.0013595958 -0.057661172
0002c0 f1 a8 90 3a 4d 4c 1c bd 0e 72 99 3d ca a4 9a 3c
       0.0011036677 -0.038158704 0.07492457 0.018877406
0002d0 62 1e af bc 31 de 81 3a e2 e4 b7 bd 6a 62 5f bc
       -0.021376792 0.0009908137 -0.08979203 -0.013634304
0002e0 e8 95 87 bd d4 ed 9c bd fc 2f 9d bb 9d 91 ce 3a
       -0.06620389 -0.076625496 -0.00479698 0.0015759949
0002f0 f1 e9 0c be b7 bc 0e 3d 92 d2 0f be 55 c9 7d 3e
       -0.13761117 0.03484794 -0.1404517 0.24783833
000300 cd 29 87 bd 14 4c b5 3c 31 3b 54 bd a8 2e 8d bd
       -0.0659977 0.022131003 -0.05181426 -0.068936646
000310 7f c0 0b be c8 f6 a5 bd 59 82 93 bd 55 9f b0 bd
       -0.1364765 -0.081037104 -0.07202596 -0.0862414
000320 e2 46 ff bc ee 04 78 3d 59 93 64 bd a9 2f 28 bb
       -0.03116173 0.060551576 -0.055804584 -0.0025663173
000330 d2 68 96 3c f5 cf 88 3d e2 0d 1c 3d ed 66 af 3d
       0.01836053 0.0668029 0.038099177 0.085645534
000340 81 cf 63 3c 0b ac b2 bc b0 91 de 3c bb 18 98 bd
       0.013904453 -0.021810552 0.027169079 -0.07426592
000350 f9 4c 55 bd f6 e6 df bd ee fe 65 3c 10 0a 1d 3e
       -0.05207536 -0.10932724 0.014037831 0.1533587
000360 42 be 34 3d 60 8a 68 3d 11 b2 24 3d aa 0f fc 3a
       0.044126756 0.05677259 0.04020888 0.0019230742
000370 ef f7 bc bc c0 32 a4 3d dd 08 b8 bd 0b 6b 14 3e
       -0.023067443 0.08017492 -0.089860655 0.14493959
000380 e7 20 b0 3d af ed 8b bc 53 c2 9a bd 7a 5b 90 bd
       0.086000256 -0.01708111 -0.07556596 -0.07048698
000390 db 1e 0b 3d 0f e4 e1 bd 35 c2 91 3d f1 8e d0 bc
       0.033964973 -0.11029827 0.0711712 -0.025458785
0003a0 b4 cb a3 bd 79 a9 2f 3d 4c 3f cc bd a8 76 3a bd
       -0.07997838 0.04288623 -0.099730104 -0.045523316
0003b0 4e 46 9b 3b 56 19 cb bc ab 44 b6 bc b3 17 8e bc
       0.0047386056 -0.024792355 -0.02224954 -0.017345285
0003c0 cd e7 ed bc 07 aa 87 be 81 8f 94 bd a0 45 a0 3d
       -0.029041195 -0.26496908 -0.07253934 0.0782578
0003d0 dc 32 27 bc 59 c4 41 3e 7d a4 0c 3e fb 87 0b 3e
       -0.010204997 0.18922557 0.13734622 0.13626091
0003e0 47 63 4f bc 40 48 6a 3d 4c 99 9f bb 29 91 24 be
       -0.012657947 0.05719781 -0.0048705693 -0.16070999
0003f0 65 5e b1 be 79 0c f6 bd 1c fa 35 be 9e 09 3c bc
       -0.3464233 -0.12014098 -0.1777119 -0.011476902

fc2.bias f4 [84]
000000 73 89 6a 3c 5c 9d 7f 3e 93 55 15 bd d6 26 46 bc
       0.014314997 0.24962372 -0.036458563 -0.01209422
000010 02 46 b6 3d 55 14 8d 3d d1 ea 6c bd 7e 3e dc 3c
       0.08900072 0.06888644 -0.057841126 0.026885267
000020 a8 18 42 bc 3e fd 19 bd 0b 73 83 3e b9 98 4b bc
       -0.011846699 -0.037595026 0.25673708 -0.012426549
000030 3f 1d f8 bd 20 25 0a 3d d8 6e c2 3c b5 82 50 bd
       -0.12114953 0.03372681 0.023734495 -0.050905902
000040 17 39 84 bb b6 0e 87 bd 3f 64 a7 3b e9 7e 86 3d
       -0.004035126 -0.06594603 0.005108386 0.06567175
000050 3d 6d 89 bd 4a a2 cb 3c f8 7d b4 3e 5d 4f 7f bc
       -0.06710289 0.024857659 0.35252357 -0.0155828865
000060 14 d7 0d bc 7e 5c ae 3d 55 cf 36 be 01 63 05 bd
       -0.008657236 0.08513735 -0.17852528 -0.03256512
000070 be 29 2a bd 8e 37 34 3d 03 85 93 3e dc d8 89 bd
       -0.041543715 0.043998294 0.28812417 -0.06730816
000080 a3 6c 09 3e 1e a5 74 3e 8c 05 d0 bb c9 70 80 bc
       0.13420348 0.23891112 -0.0063483175 -0.01567878
000090 1a a5 36 bd e9 23 f8 bd ca 73 2d 3e 04 af ff bc
       -0.044591047 -0.12116224 0.16938701 -0.031211384
0000a0 d5 cb 56 3d 7d 0a da bc 0f d4 89 3d 25 f0 82 bd
       0.052440483 -0.02661633 0.067299 -0.0639346
0000b0 e5 8e e8 3d 87 e5 2c be d3 e0 84 3e db f1 62 be
       0.1135538 -0.16884433 0.25952777 -0.22162573
0000c0 3d c8 28 bd 00 ff 4e bb 47 41 8f 3c 95 fc 9e 3d
       -0.041206587 -0.0031585097 0.017487181 0.0776302
0000d0 7e a9 04 bd f3 78 86 bd 08 90 14 3d 2f 91 9d 3c
       -0.032388203 -0.06566038 0.03627017 0.019234268
0000e0 99 3f d4 bd 2a 66 2f 3e 7a af 83 bb c2 22 a0 3e
       -0.10363693 0.17128816 -0.004018721 0.31276518
0000f0 1a 27 53 3c c4 72 99 be ea ab 96 3d 8f 43 ec bb
       0.0128877405 -0.29970372 0.07357009 -0.007210202
000100 63 46 32 3d 85 7b e1 3d 4f 82 90 3e be 92 b5 bb
       0.043524157 0.110098876 0.28224418 -0.0055411747
000110 55 65 49 3e d4 b0 07 bd ad 7b 25 bd f4 c0 8a 3c
       0.19667561 -0.03312762 -0.04040115 0.01693771
000120 74 8a 0d bd 8d e4 d5 bc c5 2b 2a be 09 5a c7 bc
       -0.034555867 -0.026109958 -0.16618259 -0.024334924
000130 c7 f2 5c 3d eb f9 d6 3c 1b 0a 47 3e d2 7f e2 3c
       0.053942468 0.026242217 0.19437449 0.02764884
000140 95 1c a9 3d bd 29 39 ba 82 80 d4 3d 86 ff 45 bd
       0.08257405 -0.00070634094 0.103760734 -0.04833939

fc3.weight f4 [10, 84]
000000 68 28 06 be 67 65 7d bd 02 fd 6f be 9b cd 96 bc
       -0.13101351 -0.061864283 -0.23436359 -0.018408587
000010 b8 6e 57 be c4 a3 4f 3b 0a 10 a0 bc 73 9c 51 bd
       -0.2103833 0.0031683305 -0.019538898 -0.051174592
000020 fd 92 b3 ba 85 ca 6b 3c 2b d8 84 be 91 25 34 be
       -0.0013700422 0.014391546 -0.25946173 -0.17592455
000030 30 14 97 3d 81 0a 9f bc 9d 15 fc bc 69 a5 01 bd
       0.07376897 -0.019414188 -0.030772025 -0.031651888
000040 13 8f 84 bd 4f d2 59 be d9 72 02 bd 46 3f b0 bc
       -0.06472602 -0.21271633 -0.03184781 -0.021514546
000050 20 63 87 bd 82 15 05 3c bf 48 d4 bd ed bc 46 3e
       -0.066107035 0.008122804 -0.10365438 0.19408007
000060 ed 6b cd 3c af 04 1a bd 5c 8a 6e 3e c7 73 1f be
       0.025075877 -0.037602123 0.23294967 -0.1557151
000070 d5 57 84 bc 4e 92 9a bc 8c 13 8d be 31 88 4b 3e
       -0.016155163 -0.018868592 -0.27553976 0.19876172
000080 7e 4d 7b 3c 92 c6 c3 bc af 70 46 bc d1 26 1b bd
       0.0153383 -0.023898397 -0.012111827 -0.037878815
000090 8e e7 38 3d 0b 4e 19 3e f4 cb 1a 3d 9a 2d ba bb
       0.045142703 0.14971177 0.03779216 -0.0056817057
0000a0 7a 10 49 3e ca 5d bf bd 39 c2 39 be 12 43 b8 3a
       0.19635192 -0.09344061 -0.18140496 0.0014058074
0000b0 45 96 44 3c e3 e2 6f 3e 4e d5 37 bd 07 62 de bd
       0.011998718 0.23426394 -0.044881158 -0.10858541
0000c0 e6 35 65 ba d7 3e b2 bc 7c ea 4e be e4 d4 f6 bd
       -0.0008743688 -0.02175848 -0.20206636 -0.120523244
0000d0 22 b1 2e 3e ce c2 c0 3c e5 2f a1 bc 04 7f 9f 3c
       0.17059758 0.02353039 -0.019676158 0.019469745
0000e0 99 6a 81 3d 41 8e ca bd 60 94 37 bc 9b de 77 bd
       0.0631916 -0.09890414 -0.011204809 -0.060515027
0000f0 15 e1 28 bc 76 6c d4 3d e3 f3 2d be 8f bd a4 3c
       -0.01030757 0.1037225 -0.16987567 0.02010992
000100 da 21 0a 3c a7 ab 93 bd c6 ca 85 bd 9c 38 e2 ba
       0.008430922 -0.072104745 -0.065328166 -0.0017259303
000110 45 d6 5c be 5e 9f 90 3d 10 5e 1a 3a 02 59 12 bd
       -0.21566112 0.07061647 0.000588865 -0.035729416
000120 5c ce 9a bb 0b 19 c1 3b 93 69 ec 3b f6 68 4b bc
       -0.004724307 0.005892878 0.007214734 -0.012415161
000130 27 d9 ce 3b f4 95 02 3c ca bf ca bd b2 80 08 3d
       0.0063125077 0.007970322 -0.09899862 0.03332586
000140 fd d9 55 be 3f e3 b0 3d 4a 0c 92 3d d7 69 27 3c
       -0.20883937 0.08637094 0.0713125 0.010218105
000150 59 47 1a be 07 c8 e5 3d 83 54 07 3e f9 3a 1b ba
       -0.1506628 0.11219793 0.13215832 -0.00059215684
000160 06 a0 7f be 8f 29 2d 3c a0 f2 13 bb cf 6f 1f 3e
       -0.24963388 0.01056899 -0.0022575036 0.15569995
000170 a2 6e 15 3a 15 dc cb 3b 76 ba 86 be f7 50 96 bd
       0.00057003845 0.006221304 -0.26314133 -0.073396616
000180 9e aa c5 3d 2f 62 e3 bc 17 1d 20 bd e7 57 12 bd
       0.09651683 -0.027756779 -0.039090242 -0.03572836
000190 af c8 82 bd 37 01 30 3e 19 44 94 bc 05 47 8d bd
       -0.063859336 0.17187963 -0.018098878 -0.068983115
0001a0 8d 10 5c 3e 2c ff b5 3c 4f 51 50 3e 6c bb 9b 3c
       0.21490689 0.022216402 0.20343517 0.019010268
0001b0 8c f9 8d 3c a1 52 8f bd 1c 7f e5 bc 62 60 5a 3e
       0.017330907 -0.06998182 -0.028014712 0.2132583
0001c0 db bc 0f bb 7b 74 8d 39 b6 2f 5a be a0 0b 40 bd
       -0.0021932635 0.000269804 -0.21307263 -0.046886086
0001d0 cb fb 49 3b ac de 10 3e 64 b1 4c bd d5 01 05 bd
       0.0030820246 0.14147443 -0.04997386 -0.03247245
0001e0 25 1c 13 3d 7d f6 27 3d b7 a6 d7 bd 7a 79 df 3b
       0.035915513 0.041006554 -0.10529845 0.006819901
0001f0 06 bf 5b bd cc 88 94 3e 19 98 e8 bd 0e 4c 4b 3e
       -0.05364897 0.29010618 -0.11357135 0.19853231
000200 1f a2 94 3d 65 49 7f bd e6 fb 42 bd d8 a1 b4 bd
       0.07257485 -0.062325854 -0.04760351 -0.08819932
000210 3a 50 bb 3a 23 1e ae bc 7e d7 33 3e b8 cb b1 3d
       0.0014290877 -0.021254605 0.17562672 0.086814344
000220 1d f8 4b 3c 23 e1 16 be ca b3 0f bd f3 fa 8f 3c
       0.012449292 -0.1473432 -0.03508357 0.017575717
000230 c0 c0 a4 3a 79 4d 07 3d 83 28 19 3a eb b3 e5 3d
       0.0012569651 0.033032868 0.00058425235 0.11215957
000240 ff c7 73 bc 0f 10 09 bd 99 05 3b 3e 86 12 35 3d
       -0.014879226 -0.03346258 0.18263854 0.04420712
000250 37 1b ed 3b 40 a8 43 3c 84 de 46 3e 0c 34 cc bb
       0.0072359103 0.011941969 0.1942082 -0.0062317904
000260 96 47 83 bb 0f 8f 22 3d 59 78 a3 bb da 1b e3 bc
       -0.0040063364 0.039687213 -0.004988712 -0.027723242
000270 4a 3d c2 bb d3 26 b1 3b 12 fc 03 be 4f 56 1e 3c
       -0.0059277164 0.0054062395 -0.12889126 0.009664132
000280 9e 05 9c 3c d4 ad 16 3d 02 52 31 3e 97 b7 0c 3d
       0.019045647 0.03678687 0.1731644 0.034354772
000290 01 17 7d 3e b8 1c a2 3d 65 51 47 bd 9b 5c c9 3a
       0.24715807 0.07915634 -0.04866161 0.0015362682
0002a0 a2 cb a6 3c 5a 80 c5 bb c1 03 50 bc 24 e3 da bc
       0.020360772 -0.0060272636 -0.0126962075 -0.026719637
0002b0 96 43 cf bd 94 10 9c bc c8 1e b6 bc e0 35 a7 3d
       -0.10120313 -0.019050874 -0.022231475 0.08164573
0002c0 d9 a2 4b 3c 52 eb 9b 3b d3 d2 43 be 91 98 06 3e
       0.012428963 0.004758277 -0.19123392 0.13144137
0002d0 64 be 6a 3c 36 e6 07 bc 67 af 18 bd 67 ec 08 bd
       0.014327619 -0.008294633 -0.03727665 -0.033428576
0002e0 fa 01 2a bd e9 8a a8 3c 70 99 9e bb b2 1e ef b9
       -0.04150579 0.02057405 -0.0048400685 -0.00045608502
0002f0 62 8e 58 3d c2 30 35 3c 9e ef 86 bc 43 b1 ed 3d
       0.05287016 0.011058988 -0.01647168 0.116060756
000300 4e 26 09 3b fa 7f bf bd 50 94 da bd d2 35 a7 be
       0.0020927372 -0.093505815 -0.106728196 -0.3265825
000310 73 ee 3e bc 8c 26 09 bd e7 37 f0 bd 91 df 12 be
       -0.01165353 -0.033484027 -0.117294125 -0.14343096
000320 1d 1c 9a 3c e6 a4 44 3e 4e a7 dd bc 07 cb 1b bd
       0.018812234 0.19203529 -0.027057316 -0.03803542
000330 c9 e1 3d 3d f1 03 f6 bd 7c 96 7a bd 93 ff 6b bb
       0.046357904 -0.120124705 -0.06117867 -0.0036010488
000340 5f 29 c6 3d 60 48 3d 3e 91 f5 4c 3d ea 50 07 3e
       0.0967586 0.1848464 0.050038878 0.1321446
000350 64 7e c7 3c 9c 14 37 be ac 3d c7 bd ea 20 92 3a
       0.02435226 -0.17878956 -0.0972856 0.0011148725
000360 e5 df 4b 3b f6 fb 04 bc d0 03 04 3d 51 b6 85 3e
       0.0031108793 -0.008116713 0.0322302 0.2611566
000370 0b 3f d1 3d 0e f0 7c bd 9d af 9a bc a7 60 93 3c
       0.102171026 -0.06175237 -0.018882567 0.017990423
000380 b4 75 4f be 1e 2a 82 bd fc 63 e9 bc 1d 1e 69 be
       -0.20259744 -0.063556895 -0.02849006 -0.22765394
000390 bc 8c b2 bc bf 8e 68 3e 3a de e6 3d 19 69 17 3d
       -0.021795623 0.22710703 0.11272855 0.036965463
0003a0 2c 6d 91 bb db 1b 6c bc ae 52 46 be 71 f0 de bc
       -0.004438063 -0.014410938 -0.19367477 -0.02721426
0003b0 b9 41 30 3e e2 90 66 3d a3 e2 13 39 d2 17 e6 bc
       0.17212571 0.056290515 0.00014103441 -0.02808753
0003c0 f7 de 22 bd af a4 8b bc e4 64 d9 3d 2e 2b 84 3c
       -0.039763417 -0.0170463 0.106149465 0.01613387
0003d0 06 e5 9d 3c 01 59 84 3b b6 a7 ae 3d 53 64 5a 3d
       0.019274246 0.0040389304 0.08528082 0.053318333
0003e0 6b 7c 97 bd 78 3b 81 3c 89 fb 45 bd 85 fc 1d bc
       -0.07396778 0.015775427 -0.048335586 -0.009642725
0003f0 ed 59 f0 bc 76 54 36 bd dd 15 2f be de 76 d2 bc
       -0.029339755 -0.044514142 -0.17098184 -0.025691446

fc3.bias f4 [10]
000000 86 0e 2c be 6e 9e 07 bd 6a 47 95 bd 20 3f ba bc
       -0.16802415 -0.033110075 -0.07289012 -0.022735178
000010 23 1d 6c bd ab 6a 98 3c 2e de b2 be 9b bc 90 bd
       -0.057644974 0.01860555 -0.34935135 -0.07067224
000020 9f a5 b3 3e 80 90 a1 3d
       0.35087296 0.07888889
