model/last_model.pth (torch, 180679 bytes, 10 tensors)

conv1.weight f4 [6, 1, 5, 5]
000000 2b a3 29 bd 83 2d e7 3c 71 c1 37 3e ba 44 05 3d
       -0.041415375 0.028219944 0.17944886 0.032536246
000010 56 41 17 3f ae 43 60 3e 3b 2a c8 3d 95 37 ea be
       0.5908407 0.21900818 0.0977368 -0.4574553
000020 57 f6 94 be 69 43 8f 3e 74 f2 c7 3e 20 ff ac be
       -0.29094192 0.27981117 0.39052165 -0.33788395
000030 c5 48 48 bf a8 f5 0c be cb 62 e7 3e e1 5b 8b 3e
       -0.7823604 -0.13765585 0.4519256 0.27218536
000040 fa 63 47 3d 9b 4b fb bd 66 e1 4c bd 85 e2 c2 3c
       0.04867933 -0.1227028 -0.050019644 0.023789654
000050 24 ea 80 3e 9f 14 af 3d a1 fb 5d 3d f7 89 4f be
       0.25178635 0.08548855 0.05419505 -0.20267473
000060 82 66 2a 3e 29 76 06 3e 81 30 71 bd 9b 20 a0 bd
       0.16640666 0.13131012 -0.058884148 -0.07818719
000070 28 bd 47 3e a5 83 2f be e5 81 3c bc 30 c2 89 bd
       0.19505751 -0.17140062 -0.011505579 -0.067264915
000080 1e 9f 6b 3e 65 e2 71 3d f2 26 75 3d 5c a7 2d bd
       0.23009917 0.059053797 0.059851594 -0.042395934
000090 1f cb f1 bd 35 d6 0b 3e 28 c3 ff 3e da 22 74 3e
       -0.118063204 0.13655932 0.4995358 0.2384142
0000a0 1a 03 22 bf 00 96 c2 be 0b a4 c5 be f8 b4 1e bd
       -0.6328598 -0.38005066 -0.38601717 -0.038746804
0000b0 94 8f ee 3d 21 bc f8 3d 16 91 ba be 4a 7e 3a bf
       0.11648479 0.12145258 -0.36438817 -0.7284895
0000c0 ef e1 f9 be 9f 18 f5 3d ab 3e bd be 5c b3 8e 3e
       -0.48805186 0.11967587 -0.36961874 0.27871215
0000d0 43 c5 14 3e c1 5a 53 3d 74 8c 1a 3d ea 8b 56 bd
       0.14528374 0.05160022 0.037731603 -0.052379526
0000e0 1e d4 cb 3e 5a 1e 2e 3d 16 2f a4 bd 40 8c 5a be
       0.3981027 0.042509414 -0.080167934 -0.21342564
0000f0 64 af 73 3e fe 36 b1 3e c6 27 d8 bd fe cb 57 be
       0.23797375 0.34612268 -0.10554461 -0.2107391
000100 3e e2 8c be 6a 7e cd 3b ee 36 08 be 29 3c 9e bd
       -0.2751636 0.0062711732 -0.13302204 -0.077263184
000110 fd 5b d4 be a4 40 a3 bd f6 7a 11 3e 3c 31 c8 bd
       -0.4147643 -0.079713136 0.14207062 -0.09775016
000120 82 46 9e bd c5 5b 1b 3d 45 ac 53 3e 80 46 98 3c
       -0.07728292 0.037929315 0.20671184 0.018588305
000130 f2 4e 1c 3d d9 38 ed be 55 88 69 be db 81 85 bc
       0.038161226 -0.46332434 -0.22805913 -0.016297271
000140 b9 05 c8 bd a9 6d 04 3f 7e ef 0e 3e f8 ea 06 3d
       -0.097667165 0.5172983 0.13958547 0.032938927
000150 78 26 b7 be e2 6d 34 be 8f 18 74 3d bc 7a 16 3d
       -0.35771537 -0.17620042 0.059593733 0.036738142
000160 78 57 36 3e 86 5e b9 be e4 1f bf 3d d3 16 38 3e
       0.17806804 -0.36204928 0.093322545 0.17977457
000170 e9 74 03 3e e2 d1 4c 3e 39 6e f7 be 73 c3 9c 3c
       0.12837566 0.20001939 -0.4832628 0.019136166
000180 f5 c6 5f 3d ef 1a 2d 3e 6f 4e 95 3e c6 55 97 3e
       0.0546331 0.16904806 0.29161403 0.29557627
000190 02 09 bb bc b1 db 15 be 2c b5 4d 3e 8e 94 a0 3d
       -0.022831444 -0.14634587 0.20088643 0.078408346
0001a0 9e 29 11 3e 77 bd 82 be b4 16 73 3b 5d d4 d3 3d
       0.14176032 -0.25535175 0.003709239 0.103432395
0001b0 86 dc a8 be 9f 57 8a be 06 bb d3 3b b1 65 ed ba
       -0.32980746 -0.27019975 0.006461504 -0.0018111971
0001c0 0d 1b 36 be 38 3b fe be a2 b4 a3 be 14 ce f4 bd
       -0.17783757 -0.49654555 -0.3197375 -0.11953369
0001d0 33 f8 63 3e 6e 22 17 be bf 71 19 3e e4 63 25 3e
       0.22262649 -0.14759228 0.14984797 0.16151386
0001e0 b6 1e c2 3d a5 58 1e bd 3b 8f ac 3e 26 f5 95 3e
       0.09478514 -0.038658757 0.33703026 0.29288596
0001f0 b8 5b a4 3e 00 1e 35 3d b9 2d f8 3c 51 9a b7 3e
       0.32101226 0.044218063 0.03029524 0.35859922
000200 0f 94 8d 3d 9c 66 b0 bd 99 1c 0d 3d 6d ae 37 be
       0.069130056 -0.08613321 0.0344511 -0.17937632
000210 00 df 7a be e2 7d 3a be 5c 84 2d 3e 96 68 95 bc
       -0.2449913 -0.18212083 0.16945022 -0.018238347
000220 a8 23 0f 3e 37 5f 5b 3e a2 30 d0 3e e2 3b 34 bd
       0.13978446 0.2142304 0.40662104 -0.04400242
000230 a7 87 c7 bd ab 0a 64 3e 26 54 ae 3e 7b 0c 18 3e
       -0.097426705 0.22269695 0.34048575 0.14848511
000240 ac 63 61 be 3c 30 8b be f7 ac 40 bf dc 90 27 bf
       -0.22010678 -0.27185237 -0.75263923 -0.6545541
000250 57 3f 39 bf b7 ec c0 bd
       -0.72362274 -0.0942015

conv1.bias f4 [6]
000000 2f ea 4d bf 85 48 5e be 55 4f 84 be f0 cc 9a be
       -0.8043546 -0.21707352 -0.25841776 -0.3023448
000010 41 2c 46 be b7 8d b4 3c
       -0.19352819 0.022040231

conv2.weight f4 [16, 6, 5, 5]
000000 97 f7 91 3e f1 c9 bc 3e ad d7 ba 3c ed be 7d bf
       0.2850921 0.3687282 0.02280792 -0.99119455
000010 e8 e8 5c 3e 29 7d 44 be f6 81 05 bf 65 c7 33 3e
       0.21573222 -0.1918837 -0.5215143 0.17556532
000020 6b ba 1b 3e ad 71 9c 3e 40 29 85 bf 29 14 a9 be
       0.15207832 0.30555478 -1.0403214 -0.33023193
000030 17 1c 19 bf f0 89 3a be 81 81 84 bd 8b 80 2c bf
       -0.59808487 -0.18216681 -0.064700134 -0.6738364
000040 87 e5 e8 3e aa 2e 02 be 6d b4 31 3e 12 25 2b be
       0.45487615 -0.12713113 0.17353983 -0.1671336
000050 5b c7 bd 3e f2 da 82 be c6 72 b5 3d ac d1 cf bd
       0.3706616 -0.25557667 0.08859782 -0.101474136
000060 f5 cd d8 bd e2 4e 07 3d df 43 1c be 16 3b cb 3d
       -0.10586158 0.033034213 -0.15260266 0.09923379
000070 16 2a ec 3d fd f1 e1 bd f7 0b 11 bf ba c4 b1 bf
       0.11531465 -0.11032484 -0.5665888 -1.3888161
000080 0f 37 4a 3e 0f e1 b9 3d 04 66 ba 3e 10 18 1d be
       0.19747566 0.0907613 0.36405957 -0.1534121
000090 78 c9 83 3e d5 2d 88 3e 65 9c 00 bf ae fa 43 bf
       0.25739646 0.26597467 -0.5023864 -0.7655438
0000a0 cd 6d af be b3 96 57 be 62 6e 6a bd 87 f2 31 be
       -0.3426346 -0.21053581 -0.057234176 -0.17377673
0000b0 07 87 11 be c2 38 1a 3e e7 85 e8 bd 20 7a ba 3d
       -0.14211665 0.15060714 -0.11353665 0.09105325
0000c0 41 53 93 bd 16 14 cd 3e 9c 54 b0 3d c6 e5 36 3e
       -0.07193614 0.40054387 0.08609888 0.17861089
0000d0 d1 d2 d7 3e d9 8e fb bc 0a ec 16 3f 51 9c e3 bd
       0.42153028 -0.030707764 0.5895392 -0.11113799
0000e0 18 fa 11 bf e1 33 f8 be 43 b4 fd be ef 8c d0 bd
       -0.5702224 -0.4847708 -0.4955159 -0.10183131
0000f0 6a d1 5c be d1 08 5d be 11 be 85 be 39 97 03 bf
       -0.2156426 -0.21585394 -0.26121572 -0.5140262
000100 09 11 87 bf 64 ff 16 3e 47 bb bb 3d 3b e7 74 bd
       -1.0552074 0.14745861 0.0916658 -0.05979083
000110 b6 4c d7 be 64 b5 48 3e b2 55 cf be db 36 b5 be
       -0.42050713 0.19600445 -0.40495068 -0.35393414
000120 92 5f 2e be f0 1a 53 3e cc 41 14 3d 7a 01 41 bd
       -0.17028645 0.20615745 0.03619556 -0.04712055
000130 7a ba cd be 48 9e 64 be 4c 2d 6e bf 64 80 80 bf
       -0.40181333 -0.22326005 -0.9303787 -1.0039182
000140 20 18 92 be 95 ef 91 3d e2 76 00 be a2 6e f0 be
       -0.2853403 0.07125775 -0.1254535 -0.46959406
000150 81 30 58 bf 4e e0 b7 be 78 25 dd bd a1 a4 39 3e
       -0.8444901 -0.35913318 -0.10798162 0.18129207
000160 64 ff 88 3e 24 07 68 3e 11 3f 92 3c 2d d4 ea 3c
       0.26757348 0.22658974 0.017852338 0.028665626
000170 6d 95 84 3e 98 65 b5 3e 82 11 32 3e 2f 03 9c 3d
       0.25895253 0.35429072 0.17389491 0.07617795
000180 ec 70 b7 3e f6 7f 5d bd 05 33 cc 3e 8e ff a6 bd
       0.3582834 -0.05407711 0.39882675 -0.08154212
000190 97 bc 04 3f 87 fb 06 be 2d a2 a5 bf 52 7a d4 bf
       0.51850265 -0.13181888 -1.2940117 -1.6599829
0001a0 b4 ff bf be bb 29 b2 3e 19 e1 45 3f 8d be 9d 3e
       -0.37499774 0.34797463 0.77296597 0.3080944
0001b0 84 4e 4d be d4 77 c2 be 18 f5 ed 3e 7f 95 a7 3e
       -0.20049483 -0.37982047 0.46476054 0.32731244
0001c0 7e b8 3b 3e a0 9a 47 bd 1a 6b 13 be ac 59 3f be
       0.18332097 -0.048731446 -0.14396325 -0.18686551
0001d0 d2 76 3d 3e 6b bb 53 be 0e 9b 5b be 1f f8 c5 bd
       0.18502358 -0.20676963 -0.21445867 -0.09666466
0001e0 36 f9 47 3e e0 b0 eb 3d c8 0c 4b be c4 d8 3c be
       0.1952866 0.115083456 -0.19829094 -0.18442065
0001f0 a3 56 17 bf 09 ed d6 3e ed 6e 68 bc 3e 91 e9 3d
       -0.5911657 0.41977718 -0.014186603 0.11404656
000200 db 0e d5 bd 9d d8 f3 bc 6c a8 a3 3d 75 ed 09 be
       -0.10403224 -0.029766375 0.07991108 -0.13469489
000210 b4 4b db be 8b fb 6a bf 5a cd 29 3f 01 4e 06 be
       -0.42831194 -0.91790074 0.66328967 -0.13115694
000220 00 dc 9f 3e 5a ee b0 3d 3d 1a ed 3e 51 55 3b bf
       0.31222534 0.08639212 0.4630908 -0.7317706
000230 69 6d fe 3d 01 1e 80 3d fc 15 08 bf 72 42 a2 bb
       0.12423212 0.06255723 -0.53158545 -0.0049517686
000240 97 9a 05 bf 6e ab 88 be 9d 49 8c 3e 47 41 c4 3e
       -0.5218901 -0.2669329 0.27399912 0.38331053
000250 1f ec 56 3c 24 69 5a 3c 72 db 89 be a8 97 a4 3e
       0.013117819 0.013330732 -0.26925236 0.32146955
000260 38 ca 17 3d d1 a2 a3 be e8 2b d3 be 21 16 b0 3e
       0.037058085 -0.31960157 -0.41244435 0.34391883
000270 a4 0e 46 3e 7c 6e 51 bc 36 6e a2 bd be ea b7 3d
       0.19341522 -0.012782689 -0.07931177 0.089803204
000280 3d 61 63 3c fe 5f a0 3d bc bf 6e 3e d0 ad 9d 3e
       0.013878164 0.07830809 0.23315328 0.3079667
000290 29 50 9e 3e de 69 91 be bb ea 31 bf 8d d9 20 3f
       0.30920532 -0.28401083 -0.69498795 0.62831956
0002a0 0b 95 41 be ad bf 2a 3e a1 95 fe 3d b2 54 f7 bc
       -0.18904512 0.16674681 0.12430883 -0.030191753
0002b0 4d 83 92 3e f5 f8 64 be da d8 cc be 29 ce 18 bf
       0.286158 -0.22360595 -0.40009195 -0.59689575
0002c0 da f4 65 3e a7 e9 84 be 3b 13 5a bf 17 f6 03 bf
       0.22456685 -0.25959513 -0.85185593 -0.5154738
0002d0 b5 fd 00 3d 48 7f 64 3e b4 50 e2 be b9 eb a2 be
       0.031491954 0.22314179 -0.44202197 -0.31820467
0002e0 37 fa 5d 3d 23 d8 18 bf f1 10 4a be 24 a9 0c 3e
       0.0541937 -0.597048 -0.19733025 0.13736397
0002f0 4a d7 c8 be d6 43 a0 be 95 6c be 3d 5d e1 83 bd
       -0.39226753 -0.31301755 0.09298054 -0.06439469
000300 44 b3 c9 3e d5 d3 6f 3e b2 7f 79 3e 2d 09 9a bf
       0.3939458 0.23420651 0.24365118 -1.203405
000310 e3 ab a2 3e c8 df 16 3f de 42 63 3e af df 81 be
       0.31771764 0.58935213 0.22193477 -0.2536597
000320 dc 95 98 be 67 f9 aa 3c 59 93 dd bd 0f 17 1f be
       -0.29801834 0.020870877 -0.1081912 -0.1553614
000330 c2 a1 a0 bd 03 e5 a0 be 2a cb 54 3e 6b ed 29 bf
       -0.07843353 -0.31424722 0.20780626 -0.66377896
000340 f3 6b 6d 3d cb 71 ca bd c8 41 2a bf 0f 2f b8 be
       0.057964277 -0.098849855 -0.66506624 -0.35973403
000350 20 44 92 3e 9e 50 30 bd 79 3d c1 bc e7 4e 05 3e
       0.285676 -0.043045633 -0.023588883 0.1301838
000360 80 21 b8 3e ab 6d 14 bf 3c e1 10 bf 15 90 ae be
       0.35963058 -0.5797984 -0.5659368 -0.340943
000370 fb 6c be be da cd c4 be 8d af 0a 3e 1c 10 33 3e
       -0.3719252 -0.38438302 0.1354353 0.17486614
000380 06 e5 ff 3d 0e bf af bc 13 46 aa be 16 2e 3c bc
       0.12494855 -0.021453407 -0.33256587 -0.011485597
000390 da 1d b8 3e 48 15 e2 bc 78 39 e2 3d 61 e9 a2 bf
       0.35960275 -0.027598038 0.110461175 -1.2727472
0003a0 af f7 84 3d 9c 61 0d 3c 94 a7 58 3e e3 c8 4a 3e
       0.064925544 0.008629229 0.21157676 0.19803195
0003b0 14 9d 01 bf 9e ba b1 bd 84 ce 97 3c 48 1a 1e be
       -0.5063031 -0.086781725 0.018531092 -0.15439713
0003c0 1b 7a d3 be 0d f1 97 be 36 a7 7d be 1d 44 cb bd
       -0.41304097 -0.29676095 -0.24770817 -0.09925101
0003d0 03 b5 d7 3d 18 60 44 3e 44 70 a4 3e 3c 74 88 be
       0.10532572 0.19177282 0.32116902 -0.2665118
0003e0 39 de ad 3e a8 2c e4 3e f4 d7 6e be ef 08 f8 be
       0.33958605 0.4456532 -0.23324567 -0.48444316
0003f0 bd b0 ab be 09 9f a0 3e 85 90 8a 3e b1 ef de 3e
       -0.33533278 0.31371334 0.27063385 0.43542245

conv2.bias f4 [16]
000000 d9 6b 8b be a4 f0 dc 3c 1c 4a 05 bf a6 90 aa be
       -0.2723072 0.026970215 -0.52066207 -0.33313483
000010 5e 22 ac 3e 3b 64 0b bf 25 73 8d 3c 8d fa 35 3e
       0.3361997 -0.54449815 0.01726682 0.17771359
000020 db f3 c0 be a1 3f 8c 3d 43 6a 62 bd 25 68 ae 3d
       -0.37686047 0.06848074 -0.05527712 0.08515958
000030 e7 5f 09 bd 57 f4 fe be 99 6a 5c be 74 bf 6c be
       -0.033538725 -0.49795792 -0.21525039 -0.23119909

fc1.weight f4 [120, 256]
000000 6b fb 31 3f ce da 93 be 93 21 cf bd 4c a9 1c be
       0.6952426 -0.28877872 -0.10113826 -0.15298957
000010 29 52 95 3e d0 28 82 3e 6b e9 03 3d f9 35 47 3d
       0.29164246 0.25421762 0.032205027 0.048635457
000020 46 41 78 be 7a 5d b3 3e 31 8d 81 3d c2 dd 3c bd
       -0.2424365 0.35032254 0.06325758 -0.046109922
000030 0b fb a4 be ee c1 cf 3c 4e 61 cc 3e 89 4d 43 3f
       -0.3222278 0.025361028 0.39917988 0.76290184
000040 f6 36 ed be e4 07 42 bf 40 33 4a be 7b d0 76 3e
       -0.46330994 -0.7579329 -0.19746113 0.24102966
000050 f4 60 74 bd 8e 2c 57 be 7e ba c4 be a4 52 04 3f
       -0.059662774 -0.2101309 -0.38423532 0.516886
000060 f1 c9 f4 3e 65 70 6b 3d c0 b2 31 3d b6 9d bd be
       0.4781032 0.057480235 0.04338336 -0.37034386
000070 82 6f 20 3f 02 98 19 3f 10 b8 6f bf 0c 81 37 be
       0.6267015 0.5999757 -0.9364023 -0.17920321
000080 90 0f b4 3e ac ce 23 3f 73 c4 1a 3d 29 16 51 be
       0.35168123 0.6398723 0.037785005 -0.2041861
000090 92 1f 29 3f d2 de 73 3f 3b e0 4c be 95 f3 e9 be
       0.660638 0.9526187 -0.20007412 -0.4569365
0000a0 bd 52 0d 3e a6 d6 dd bc e2 59 6d bc d7 0c 00 bf
       0.13801093 -0.027079891 -0.014486762 -0.5001959
0000b0 fe 2e 74 3e b0 16 a0 3d 14 28 a4 be e4 de c2 bd
       0.23846051 0.07816827 -0.32061827 -0.09515169
0000c0 89 10 99 3d e6 04 32 3e f2 be 78 3e 6d 45 da 3d
       0.07473857 0.17384681 0.2429159 0.10657773
0000d0 97 30 96 3c d9 c1 d6 bd df 4d 18 3e d3 4b 72 3e
       0.018333716 -0.10486192 0.14873455 0.23661737
0000e0 e9 ad 48 bd 3f 1e 73 3e 27 9c 3b 3e af 4f 3a be
       -0.04899398 0.23742007 0.18321286 -0.1819446
0000f0 76 1d 68 bc da d5 a2 3e 87 6e 24 bf 8e f7 df be
       -0.01416718 0.3180378 -0.6423115 -0.43743557
000100 5c c6 08 3f 1b 44 90 3e 16 67 65 3f d6 cb 92 3e
       0.5342767 0.2817696 0.8961042 0.2867114
000110 f6 39 19 3d 25 26 d9 3d 88 92 71 3f 3f ed 52 be
       0.03740879 0.106029786 0.94364214 -0.20598315
000120 f6 74 a8 3e b4 d4 a1 3e 0f 75 cc 3e 90 84 67 bf
       0.32901734 0.31607592 0.3993306 -0.9043665
000130 14 50 b0 be af a7 cd 3e 35 e9 7f be 74 0c ff bc
       -0.34436095 0.40166995 -0.24991305 -0.031133868
000140 0a 77 a3 be 3a a4 a3 3d 36 bd 1f 3c 44 6c d2 be
       -0.31926757 0.07990308 0.009749701 -0.41098225
000150 b4 ce dc bd ef 1b a8 3c 10 06 b2 3d 5b 1b 4c be
       -0.10781613 0.020521132 0.086925626 -0.1993231
000160 34 68 b6 3e e1 c4 1a 3d 77 90 07 be d8 db a6 bd
       0.35626376 0.037785415 -0.13238703 -0.081474006
000170 77 96 a1 3e 62 a8 dd 3d 67 52 cf 3c 1d 9a 1e 3f
       0.31560108 0.10823132 0.025307847 0.6195391
000180 d3 de 9b 3d 8e 2d 0b 3b cf 24 c7 3e 33 ef 48 3f
       0.0761086 0.002123687 0.3889527 0.7848999
000190 4d 20 2c 3e 34 3e 9a 3d 69 d3 87 3e c0 4b 2e 3f
       0.16809197 0.075313956 0.2652848 0.68084335
0001a0 32 8a a8 bf bd 19 02 be e3 e8 88 bd 4c fb 18 be
       -1.3167174 -0.12705131 -0.066850446 -0.14939612
0001b0 ea 92 ff be 8d 97 a9 bd 3f 4c 07 bf 29 b6 24 bf
       -0.49916774 -0.08280859 -0.5285072 -0.64340454
0001c0 ba 48 6d 3e e3 c1 c5 3e f0 49 53 3d 94 9a 44 bd
       0.23172274 0.38624486 0.051584184 -0.04799898
0001d0 d5 8b bb be 8e 44 7f 3e af 61 ef 3d 1b ed ed 3e
       -0.3663012 0.24928495 0.116885535 0.4646996
0001e0 eb 5d c3 3c f9 0e 8d bc c8 7d 71 bd 7b f0 9d 3e
       0.023848495 -0.017219054 -0.058957845 0.30847535
0001f0 13 49 c2 bd ce 7b bb 3d e7 52 21 be 91 e1 83 bf
       -0.09486594 0.09154473 -0.15754281 -1.0303212
000200 46 e8 5a bc d6 1c 4f be 34 7c 21 be f5 8b 20 3e
       -0.013361042 -0.20225844 -0.15770036 0.1567839
000210 97 49 62 bf 42 6f 21 bf 00 13 4a be 7b 95 09 3f
       -0.8839354 -0.6306039 -0.1973381 0.53743714
000220 c3 9e 6d be ce ee a6 bd ce f0 4f 3d cb 19 29 3f
       -0.23205094 -0.08151017 0.05076676 0.6605498
000230 46 0d c0 3e 8c fe d1 3d e6 7f a6 3e c5 9f 2d 3f
       0.37510127 0.10253629 0.32519454 0.67821914
000240 8d 4c 55 3e de e4 d8 3e 98 4d 45 3f 81 df 16 3e
       0.20829983 0.42362112 0.77071524 0.14733697
000250 41 b4 8e 3e 3a 2e 1f 3f d8 42 88 3e ba 54 02 3e
       0.27871898 0.6217991 0.26613498 0.12727633
000260 bd 29 20 3f 65 99 f5 3e 23 17 b4 3e 22 ff be bd
       0.6256369 0.47968593 0.35173902 -0.093260065
000270 38 13 2b be 0c b3 8c 3d 44 3e 89 3e 03 bf 4b be
       -0.1670655 0.06870088 0.26805317 -0.19897084
000280 91 0d 3f 3d 78 85 a2 bd ce 6b b3 bc 79 2c 7d 3c
       0.046643797 -0.079356134 -0.021901991 0.015452498
000290 c0 4e 95 bb b0 ab 84 bc 28 6b e1 3c 28 91 0b 3c
       -0.004556507 -0.016195148 0.027516916 0.008518495
0002a0 80 d0 55 bb 00 31 c7 3a 34 df e0 3c 24 1b 71 3d
       -0.0032625496 0.0015197098 0.027450182 0.058863774
0002b0 97 2d 44 bd 28 c9 b4 bc 88 ce 1d 3d 92 05 2c 3d
       -0.04789504 -0.022068575 0.03852704 0.0419975
0002c0 24 4d f7 3e 74 88 f9 bd 0c 66 5b 3e 81 df 2d 3e
       0.4830104 -0.121842295 0.21425647 0.16979791
0002d0 06 79 83 3d 1b 03 3f 3e f0 00 6a 3e ec 12 43 be
       0.06419568 0.18653528 0.2285192 -0.19050187
0002e0 03 af 35 bf 84 ce a7 3e 6b 9b af 3d ce 10 07 3e
       -0.7097017 0.32774746 0.085745655 0.13190004
0002f0 c6 8b bf bd 6a 0f d4 be 9d 94 01 be 7f ac 8a 3e
       -0.093528315 -0.4141801 -0.12654348 0.2708473
000300 af de 2a bf e2 fd 7d be 8d 0d 1d 3e 2f 8a 94 be
       -0.6674604 -0.2480388 0.153372 -0.29011676
000310 28 75 80 bf 0c 4c 0d bf 19 19 a1 be aa 46 d3 bd
       -1.0035753 -0.55194163 -0.3146446 -0.103162125
000320 7d d3 87 be ca c2 96 be 4e d3 51 3d 96 f1 37 be
       -0.2652854 -0.29445487 0.051226906 -0.17963251
000330 7f fa 7e 3e fc bc 43 3e 1b 23 91 3e da 97 99 3f
       0.24900244 0.1911506 0.28347096 1.1999466
000340 3f e5 89 be 11 f2 03 3d 03 86 2c 3d a4 cd fc 3d
       -0.26932713 0.032213274 0.04211999 0.1234391
000350 53 5c 9b bd 6f 53 15 be f1 1d 18 3e 2e 8a 9d 3c
       -0.07585969 -0.14582609 0.14855172 0.019230928
000360 7c d8 4d bf ab 6a fd bd 50 0b ad 3e ac f2 2e 3d
       -0.80408454 -0.12373861 0.33797693 0.0427119
000370 1e 90 1b bd d4 19 cd bd ac 68 d2 3e 6d 99 e4 3d
       -0.037979238 -0.10014692 0.41095483 0.11162076
000380 31 f2 c8 bc 01 61 89 3e d5 da 87 3e f2 b3 1d be
       -0.024529548 0.2683182 0.26534143 -0.15400675
000390 ba 37 b9 3e c5 6b 34 3d 90 3a 52 3c e8 7c 27 bf
       0.36175328 0.04404809 0.012831345 -0.65424967
0003a0 fa a3 f3 be 41 a7 31 bf 34 21 09 bf 58 76 08 bf
       -0.47586042 -0.69395834 -0.5356629 -0.5330558
0003b0 31 a8 14 bf 20 7d 5e 3e f6 b5 13 3e 6c 0a 7b 3f
       -0.5806914 0.21727419 0.14424881 0.9806278
0003c0 4f 3c 4c 3f 26 2f d4 3e 0d bb 5e 3d ba 51 64 bd
       0.79779524 0.4144222 0.054377604 -0.055742003
0003d0 bf a4 dc 3d d0 65 4e 3f db 20 32 3e 5b dd bd bd
       0.1077361 0.80624104 0.17395346 -0.09270736
0003e0 07 83 1a 3e fd 91 2f 3f 43 d4 1c 3e b5 b7 c8 be
       0.15089045 0.68582135 0.15315346 -0.39202657
0003f0 3c 24 c9 3e 2d 61 3d bf fd 68 89 be 3e cd 5b be
       0.39285457 -0.73976403 -0.26837912 -0.21465012

fc1.bias f4 [120]
000000 e5 78 91 bd a1 a7 6b bc 65 2e 3c 3e e4 06 f7 3e
       -0.07103137 -0.014383228 0.18377073 0.48247445
000010 c7 00 10 bd 55 26 9f 3d 00 c5 13 3c b1 0c 8b 3e
       -0.03515699 0.07770983 0.009019136 0.2715812
000020 aa bf 63 bd fb 95 9f 3d f7 97 22 bd 4a 5c bb bd
       -0.055602707 0.077922784 -0.039695706 -0.09148462
000030 ff 80 93 be 9d 82 31 bc b8 bc 5d bd de fe 9c 3e
       -0.28809354 -0.010834363 -0.054135054 0.30663198
000040 fb 64 31 be dc dc 69 3e 19 83 af bd 22 c6 10 3d
       -0.17323677 0.22838157 -0.08569927 0.035345204
000050 a3 84 10 3e 09 fb 6b bc b3 28 80 3d 22 e7 e8 be
       0.14113097 -0.014403113 0.06257763 -0.4548884
000060 2e b2 6f bd b8 33 6a be 54 93 a5 bd a8 5e a7 bc
       -0.058519535 -0.22871292 -0.08084741 -0.020430878
000070 b8 cf ba bd 9d b7 0c 3d 78 ac 73 3e 4e 70 44 be
       -0.091216505 0.034354795 0.2379626 -0.19183466
000080 cf 19 57 bd 17 2a a2 3d 02 98 35 be 82 50 d5 3c
       -0.052514847 0.07918184 -0.17733768 0.026039366
000090 0d 03 5f be 86 0a 82 3c 5d 1b bd bd e9 de 00 3e
       -0.21778508 0.015874159 -0.09233735 0.12585033
0000a0 7c 4c d3 be b0 b7 07 3d af fe e1 bd 73 23 16 3b
       -0.4126929 0.033134162 -0.11034905 0.0022909313
0000b0 6f 88 82 be 25 aa 64 3e 24 6e 27 3d de d8 1d be
       -0.25494716 0.2233053 0.040876523 -0.1541476
0000c0 43 08 92 3d d1 de 59 3e 70 ba 82 bd eb 3b 91 be
       0.07130482 0.21276404 -0.063832164 -0.28366026
0000d0 f6 b1 88 be 47 99 15 3e 5a c8 b9 3e e5 9b 29 bd
       -0.26698273 0.14609252 0.3628567 -0.04140844
0000e0 bc 75 3c be e9 74 79 3e 2c 58 9c 3d 1f e7 b4 be
       -0.18404287 0.24361004 0.07634005 -0.3533258
0000f0 2d 38 62 3e 12 f1 a3 be e9 67 c0 be 14 f5 8c bd
       0.22091742 -0.3201986 -0.37579277 -0.068826824
000100 08 98 25 3b eb 17 ba be 3e 5a f4 3d 79 c1 d6 bd
       0.002526762 -0.36346373 0.11931275 -0.10486121
000110 f4 d3 c5 3e b0 00 31 3e 0a 4d 20 3d 02 69 9c 3e
       0.3863827 0.17285419 0.03913597 0.30548865
000120 af 50 01 be b3 8f 35 3d e8 1d 42 be 6f 9d 00 be
       -0.12628435 0.044326495 -0.18956721 -0.12560056
000130 2a 24 62 bc 17 66 f8 bd 49 47 a9 be c4 59 63 bd
       -0.0138025675 -0.12128847 -0.330622 -0.05550553
000140 18 f2 1d bc 5e 45 5b bd 74 09 ef bd 24 75 1b 3d
       -0.009640239 -0.05353295 -0.11671725 0.03795351
000150 03 21 93 bd 06 cb 9a 3d 73 5c 05 3f ae 11 2f be
       -0.07184031 0.07558255 0.5209419 -0.17096588
000160 ef f0 03 bd 83 cd fb bc cf 49 89 3d d8 6c 19 be
       -0.032212194 -0.030737644 0.06703531 -0.14982927
000170 5e d8 f7 bd 81 4f 96 3b 00 07 e7 bd 86 79 87 bc
       -0.12101816 0.0045871143 -0.11280632 -0.01653744
000180 c8 20 cc bd 41 c6 97 3e 64 5c 3a 3d 25 84 0b be
       -0.0996719 0.29643443 0.045498267 -0.13624628
000190 23 76 5f 3e f2 42 64 bd c8 9d 68 3e a8 31 b0 bd
       0.2182241 -0.055727907 0.22716439 -0.08603221
0001a0 93 82 5f 3e 0f cd 4c ba 73 72 de bc 67 89 af be
       0.21827154 -0.00078125385 -0.027154183 -0.34284517
0001b0 77 19 b0 3d 39 87 06 be ea 0c 02 be 0b 89 75 3e
       0.08598607 -0.13137521 -0.12700239 0.23978059
0001c0 45 3f 2e 3d a5 fd 46 be 70 8b 96 3d 01 9e b1 3d
       0.042540807 -0.19432695 0.07350814 0.08672715
0001d0 60 ee 75 bd 20 7a 27 be 17 3f 15 3e 96 4d cb bd
       -0.060041785 -0.1635518 0.14574848 -0.09926908

fc2.weight f4 [84, 120]
000000 51 8e 99 3b a9 86 01 be 5d 09 c2 bc 25 f0 6f bd
       0.004686155 -0.12649025 -0.023686105 -0.05857863
000010 4c 03 0c bd b4 92 c7 3c b5 c4 b0 3d ff ce 22 3e
       -0.03418283 0.024361946 0.08631269 0.15899275
000020 a4 5f 9e 3d b3 88 19 be 8f 03 29 3b 51 03 5d bd
       0.07733086 -0.14993553 0.0025789475 -0.05395824
000030 c4 76 53 3c 79 b8 4a bd bd 22 1c 3e 24 b9 a3 bd
       0.012906734 -0.049492333 0.15247627 -0.07994297
000040 77 91 8a bd 2a f1 ec 3d d7 81 89 bd dc 5f 8d bd
       -0.067660265 0.11569436 -0.06714218 -0.06903049
000050 fd bd a5 bd 7f 14 6b 3d 74 93 28 3d 16 30 39 bd
       -0.08092878 0.057392593 0.041156247 -0.045211874
000060 c2 4a a5 3d 23 d0 18 3c 5e 16 a6 3d 30 0c a4 3d
       0.080708995 0.009326967 0.08109735 0.08010137
000070 63 6a 7d bd 38 0b b5 bd a7 64 3c bd cc cd ac 3d
       -0.061869036 -0.088400304 -0.045994427 0.0843769
000080 1b c7 1a 3e da ff b4 bd 73 b0 35 bc d7 48 29 bd
       0.15115015 -0.08837862 -0.011089432 -0.04132923
000090 01 c5 48 bc fa 86 3b bd a5 1d d0 3c 05 ab c7 bb
       -0.012254001 -0.04578302 0.02540476 -0.006093385
0000a0 64 da 6b 3d ae 24 cc 3d 1a da 11 bd 6e 34 1b bd
       0.05758132 0.099679336 -0.03560839 -0.037891798
0000b0 9e f6 95 3c 4a c7 aa 3d 42 44 ec 3c 66 db 48 3d
       0.018306073 0.083387926 0.028841142 0.04903736
0000c0 90 e5 6b bd bd 69 31 3d af b1 ea 3d a1 05 71 3d
       -0.057591975 0.04331373 0.11459672 0.05884326
0000d0 ea 58 be bd 04 23 d8 3d 61 69 77 bb 96 99 83 bd
       -0.09294303 0.10553554 -0.003775202 -0.064257786
0000e0 44 ce 4c bd 74 b0 0a 3c 75 be ec bc 9e be b9 bd
       -0.050001398 0.008464921 -0.02889941 -0.090695605
0000f0 4c 46 e0 3d bd fc 41 bb 83 da 89 3d 7c e9 fb 3d
       0.10950908 -0.0029600107 0.06731131 0.12300393
000100 d7 a8 d0 bd fc 4d 21 bd cd 4b b8 3b f0 3b 32 3d
       -0.10188454 -0.039381012 0.0056242705 0.043514192
000110 a2 ae bd 3d 4b c6 6b bd 95 a3 46 3d 20 b6 28 3d
       0.09261824 -0.057562154 0.048495848 0.041189313
000120 ac 3e 32 bd 42 8f 27 bd 70 2a ce bd e3 d7 24 3d
       -0.0435168 -0.040908106 -0.10066688 0.040244948
000130 bf d6 b0 bd 4a a5 b0 3d 51 b8 2f bd 3f 56 76 3d
       -0.086347096 0.086252764 -0.042900387 0.060140844
000140 77 71 a7 3d 89 84 2a bd 92 a5 ba 3d 9c fa 6d 3d
       0.081759386 -0.0416303 0.09113611 0.058100328
000150 8d 17 45 3d fc b7 8d 3d 6e 1b 52 bd a9 60 6b 3d
       0.048118163 0.06919858 -0.05129569 0.05746523
000160 4d 61 66 bc 4d 5a ba bc e1 f2 62 bb 16 f0 3e 3b
       -0.014061284 -0.022748137 -0.003462963 0.0029134802
000170 b9 6a 88 3c c3 2d 46 3d 93 4a 65 3d ad 2f 2a bd
       0.016652452 0.048383486 0.055979323 -0.041549373
000180 75 fe 9c 3d 9d 5a ab 3c 67 3e 87 3d 2f a5 da bb
       0.07665721 0.020917231 0.06603699 -0.0066725235
000190 31 36 3f 3c f0 98 3b bd 1e 62 e3 3b 0e ae 1c bd
       0.011670635 -0.04580015 0.0069391867 -0.03825193
0001a0 03 94 51 3d b2 3c 7a 3d b3 36 c9 3c 38 99 aa bc
       0.051166546 0.06109304 0.024562215 -0.020825014
0001b0 02 08 84 3d d2 50 96 3c 50 7f 82 3d fc e4 d6 bb
       0.0644684 0.018349085 0.06371939 -0.006558059
0001c0 c5 a3 3a bd 5c 10 a6 3c 15 25 6c bd 49 29 c4 bc
       -0.04556634 0.020271473 -0.05765255 -0.023945468
0001d0 7e a6 a6 bc 65 82 90 3d f8 a6 1d 3e fc 62 99 3b
       -0.020343062 0.07056121 0.15395725 0.0046809893
0001e0 dd 93 11 bc 7f e3 78 3d ca 1e 92 3d b9 37 84 bd
       -0.008885351 0.060763832 0.07134779 -0.06455941
0001f0 20 87 6b 3d 5f 91 03 bb 3a 79 84 3d 6e c3 e7 3c
       0.057501912 -0.0020075662 0.06468435 0.02829143
000200 1e 29 8c 3d 4b 6d 4a 3d 1b 7c 30 bc ae 09 34 3c
       0.0684378 0.049420636 -0.010771777 0.010988636
000210 36 6a 3e 3c fb fc 53 bd bd 2b 3e 3d fe 0f c9 3c
       0.011622002 -0.051754933 0.04642843 0.024543758
000220 30 78 64 3d c5 91 25 bd a0 ee 93 bd ea e8 0c 3d
       0.055778682 -0.04042222 -0.072232485 0.03440181
000230 0a 90 5f 3c 1f 6a cd bc 87 69 86 bd d0 1c 9e bd
       0.013645181 -0.025075017 -0.065630965 -0.07720339
000240 f2 7c 1d be f7 99 08 3b 48 4d cd bd 89 95 30 3d
       -0.15379694 0.0020843723 -0.10024506 0.043111358
000250 ce c4 40 3d 2b 18 47 bc cc fd 22 3c 1b 21 2a 3d
       0.047062688 -0.012151758 0.009948205 0.041535478
000260 14 bd f8 bc b0 39 60 bd d0 24 22 3d 74 a4 58 3c
       -0.030363597 -0.054742515 0.03958589 0.013222802
000270 12 9f 9f bd 1d 3f 36 3d 8c 99 f9 bc 86 da b8 3d
       -0.07794012 0.044493783 -0.030468725 0.09026055
000280 7f d3 be 3b 5f 55 bd 3c d1 6f 1d 3d 5c 53 f9 3c
       0.005823552 0.023111997 0.038436715 0.030435257
000290 51 d5 b6 bb 22 5b 38 bd 9a f8 06 bd 97 18 4d 3d
       -0.0055796285 -0.045008786 -0.03295193 0.05007228
0002a0 9c 7d a6 3d 2e 26 70 3d 2b 75 07 3d c7 5d c8 3d
       0.08129427 0.05863016 0.033070724 0.097835116
0002b0 c2 3a 7e 3d c3 1c c1 3d 0c b5 d4 bc 43 3e 96 bc
       0.062067755 0.09429314 -0.025965236 -0.018340236
0002c0 2a 58 c7 3d 6c 44 98 bd 0b 81 1e 3e 06 95 4c bc
       0.09733613 -0.074349254 0.15478913 -0.012486702
0002d0 99 4e cb bd 99 db c7 bd 98 a5 a8 bc 13 fc 4e 3a
       -0.09927101 -0.09758682 -0.020586774 0.00078958384
0002e0 36 1e 27 bd 36 01 b2 bd d2 91 d6 bc 94 9e 19 3d
       -0.040800296 -0.08691637 -0.02619258 0.037504748
0002f0 19 41 aa bd 37 88 d0 3b a2 6d b1 bd f4 91 f5 3d
       -0.08313198 0.0063638943 -0.08663489 0.11990729
000300 5e fc 05 3b 69 1a dd 3d 1f d4 c4 3c 1b 0e e4 3b
       0.0020444612 0.10796053 0.024026928 0.0069596893
000310 95 45 a3 bd 11 6a ca bc 27 90 28 bd 38 b6 a3 bc
       -0.07972256 -0.02470878 -0.0411531 -0.01998435
000320 79 4a 10 3b 31 ad 47 bd 8d e6 86 bd e9 f5 6f 3d
       0.0022017045 -0.048749153 -0.06586943 0.058584128
000330 12 7f 84 3c d7 ce 9f bd 38 1d e7 3b 25 fd f6 3c
       0.016173873 -0.078031234 0.0070530437 0.030150006
000340 55 dd 01 bb fe 22 95 bd 16 a7 19 bd 37 24 05 3c
       -0.0019815762 -0.07282065 -0.03751286 0.00812631
000350 a4 69 bc 3d 6b 9a 1c bd 03 a7 ec bb fe f3 52 3d
       0.09199837 -0.038233202 -0.007222058 0.05150222
000360 42 40 c0 3b a8 21 8b 3d 47 30 bf 3c f1 b0 49 3d
       0.005867035 0.06793529 0.02333845 0.04924101
000370 1a 1a e8 bc 03 d4 a5 bc 76 ef de ba a1 0b b3 3c
       -0.028332759 -0.020242697 -0.0017008621 0.021856131
000380 45 e6 ed 3c a2 bb 98 3d 2e 5f 9b 3d ec 3a c8 3b
       0.029040465 0.07457663 0.075865135 0.0061105397
000390 4d d3 f8 3c 76 28 e1 bb 55 72 86 3d d4 0d 2d 3d
       0.030374194 -0.0068712784 0.06564776 0.042249516
0003a0 4f 2e 8a bb 9a 34 b7 3c ea cd d4 bd f3 69 85 3d
       -0.004216946 0.02236395 -0.103908375 0.06514349
0003b0 90 af 8d bc ab 7d 26 3d 69 04 18 3c 26 b0 01 bd
       -0.017295629 0.04064719 0.009278395 -0.03166213
0003c0 8c 42 39 bd 85 4b 69 be c2 ac 1d bd 0f e7 3c 3c
       -0.04522948 -0.22782715 -0.038494833 0.011529698
0003d0 b6 87 20 bc b9 11 c8 3c 44 9a 8c 3d 20 00 f5 bc
       -0.009797981 0.024422513 0.06865361 -0.029907286
0003e0 51 1a c7 3c 60 4c e8 3c eb a4 50 bd e2 90 df bd
       0.02430454 0.028356731 -0.050938528 -0.10916306
0003f0 8b 43 04 be df 50 f1 bc bc 78 1f be b5 4e 03 3d
       -0.1291639 -0.029457508 -0.155734 0.032057483

fc2.bias f4 [84]
000000 85 18 4d 3d 30 79 ba bc fc 8c a5 3d d7 1d 6f bc
       0.05007221 -0.022762865 0.08083531 -0.014594517
000010 ba 9d 95 3d 33 f3 2d 3d 67 90 d7 3a ae 32 da 3d
       0.073054746 0.04246826 0.0016446233 0.10654198
000020 d0 69 3a bd 06 f0 8d 3b b7 df df 3e 58 29 1f 3c
       -0.045511067 0.0043315915 0.43725368 0.009714447
000030 eb d9 a1 3d e8 88 2d bb a0 d2 ec bc bb ab 41 3d
       0.07902893 -0.0026479308 -0.028909028 0.047282916
000040 93 6b 91 3d 59 48 49 bd f3 f8 c4 bd 9a 35 42 3d
       0.07100596 -0.04914126 -0.09617796 0.0474144
000050 95 dd 0d bd 75 b3 2e 3c a9 14 38 3f 9f a7 8e 3c
       -0.034635145 0.010662903 0.71906525 0.017413912
000060 8e 32 f9 bd c8 4a 86 bd dc 93 19 bc 7f 28 c8 bd
       -0.12167846 -0.06557232 -0.009373631 -0.09773349
000070 55 76 26 3e d8 cb 09 3d 66 3e 05 3f 4a c5 00 bd
       0.16256078 0.033641666 0.5204834 -0.03143815
000080 78 f4 b9 bd 61 29 c5 3d 6d 46 f9 ba ca e4 ef bb
       -0.09079832 0.09627033 -0.0019018181 -0.007320975
000090 b3 ab 90 bc 67 95 84 bb eb da 4e bd 73 29 89 bd
       -0.017659998 -0.0040461305 -0.050501745 -0.06697359
0000a0 08 41 ae 3c 1d 2f 47 3e 0f b0 a4 3d 89 89 58 3d
       0.021271244 0.19451566 0.08041393 0.05286554
0000b0 cc 5a 44 bd 3f 79 7e be c4 a3 d0 bd c6 d4 9c be
       -0.047938153 -0.24850939 -0.10187486 -0.30631083
0000c0 ae f3 9c 3b 3c 7a cc 3d f7 e3 97 3d 3b 6f a7 3e
       0.004789791 0.09984252 0.07416528 0.3270205
0000d0 82 7a a9 3d c7 73 10 bd be 0b a9 3a ed 62 74 bb
       0.0827532 -0.035266664 0.0012897176 -0.003729041
0000e0 7b 2b 7c be 7e 33 a4 3b e4 16 bd 3b 89 15 1d 3f
       -0.24625961 0.005011021 0.005770551 0.61360985
0000f0 e6 2a a7 3d f8 17 1a bf fa 73 3b bd 3a 2c 51 bb
       0.08162479 -0.60192823 -0.0457649 -0.003191723
000100 7f bf af bc a6 e8 59 bd c9 1c 59 3e 45 46 17 3c
       -0.021453617 -0.053200386 0.21202387 0.009233062
000110 5a e8 ce bd a2 87 21 3b be 6d e6 3c 2f fc 9b 3c
       -0.10102911 0.0024647494 0.028128501 0.019041149
000120 98 7f c5 3c 4f 84 8f 3d d6 8d 1b be ba 0c 6b bd
       0.024108693 0.07007658 -0.15190825 -0.057385184
000130 a4 31 3a ba ca 51 b3 3c 59 a4 a9 bc 77 bf 02 be
       -0.0007102734 0.021889586 -0.02070825 -0.1276835
000140 aa 6c 3f 3e 9e 4e b9 bb ea eb 69 3d 6d 65 42 bd
       0.18693796 -0.005655124 0.05710975 -0.04746001

fc3.weight f4 [10, 84]
000000 cf 06 09 3d 84 ca 13 3b ef 81 a3 be e2 00 a9 bc
       0.03345376 0.0022551129 -0.3193507 -0.020630304
000010 4e 87 00 be c5 ad b5 bb a1 32 c2 ba 20 e1 32 bd
       -0.12551615 -0.0055443966 -0.0014816114 -0.043671727
000020 1c c9 43 3d f5 19 6e bb 00 87 7c be 6e 7b e2 3c
       0.047799215 -0.003633139 -0.24660873 0.027646746
000030 7b e3 a3 3c 60 df 0b bd 70 ba 2b bd 0b 08 33 bd
       0.020005932 -0.034148574 -0.041925848 -0.043708842
000040 e2 88 9e bd ef e2 5e be c7 36 a2 bc 83 ed e6 bc
       -0.07740952 -0.21766256 -0.01980151 -0.028189426
000050 87 b3 1d be 73 d2 a5 3a e2 49 8f bd bf 9e a3 3c
       -0.15400515 0.001265122 -0.06996514 0.019973157
000060 39 b5 bb bb 1b 4d 06 bd bd 5c 70 bd 88 2a 18 be
       -0.0057283905 -0.032788377 -0.058682192 -0.14859974
000070 45 17 50 bc 30 55 db bc ee 77 f0 be 17 ea 3c bd
       -0.01270086 -0.026774019 -0.469665 -0.046121683
000080 21 44 30 3c 56 64 42 3c bc c6 f0 bc 55 d6 4c bd
       0.010758431 0.011864742 -0.029391639 -0.05000909
000090 fc fe 49 3d 1a ef 09 bd 18 5e e5 bc c1 32 a8 3c
       0.049315438 -0.03367529 -0.027998969 0.020532014
0000a0 85 43 cb 39 87 5d e5 bc 4a 70 76 be 80 e9 d2 3c
       0.00038769483 -0.027998699 -0.24066272 0.025746107
0000b0 5c 55 31 3d 31 ed c0 3e 74 ca ef bc ea c2 4d bd
       0.043294296 0.37680963 -0.029271342 -0.050234713
0000c0 f5 87 77 3c 87 76 08 bd af 4f 89 be d8 c0 7c be
       0.015108098 -0.03331616 -0.26818606 -0.24682939
0000d0 24 48 c1 3b f6 a2 b1 bc 4a 54 84 bb 6b 69 73 3c
       0.0058984924 -0.021684151 -0.0040383684 0.014856677
0000e0 f4 1e 25 3e 47 35 53 bc dd c8 f1 3a de 2a e0 3c
       0.16125089 -0.01289112 0.0018446703 0.02736419
0000f0 d8 0f a9 bb 24 35 ee 3d 1a cd 2e 3d 7f 72 4d 3d
       -0.0051593594 0.116312295 0.04267607 0.05015802
000100 27 d9 1f bc 41 80 54 3c 0a ff 0f 3d 02 87 01 bc
       -0.009756363 0.012970031 0.035155334 -0.0079057235
000110 9a 12 dc 3c ce e6 6c 3d 89 57 e5 bb e8 53 80 bd
       0.026864339 0.0578373 -0.0069989604 -0.06266004
000120 ef b5 db bc b0 42 04 bd fb 49 09 3d b2 c6 01 3d
       -0.026820151 -0.03229016 0.03351782 0.03168363
000130 57 84 01 39 9e 00 09 3d 33 71 44 3c 7c 55 01 3d
       0.00012351699 0.033447854 0.011989879 0.031575665
000140 5c 6e a4 bc 31 79 a7 3c b8 ef 22 bb 23 99 13 bc
       -0.020072155 0.02044353 -0.0024862122 -0.009008679
000150 c6 71 a3 3c ce 18 d6 3c cb 8f 91 3d fd 26 17 bd
       0.019951712 0.026134875 0.071075045 -0.036902416
000160 39 e8 cc be 56 fb 51 bc b9 11 59 3a ae 20 21 bc
       -0.40020922 -0.012816271 0.0008280534 -0.009834452
000170 62 ba ff 3c 8c 1e 2b 3c e7 a4 a6 be 89 c4 81 3b
       0.031216804 0.010444295 -0.32547686 0.0039601964
000180 cd d3 ee 3c 8e 25 cf bb 1f 16 2c bd d1 db 5f bd
       0.029153729 -0.0063216155 -0.042013284 -0.054652993
000190 8f 01 52 bd d1 a0 37 3e 05 72 e8 bc 22 84 0a bc
       -0.051271018 0.1793244 -0.028374681 -0.0084543545
0001a0 5b b6 6f 3e fa 46 84 bc 02 f6 8c 3e 41 9b 17 bd
       0.23409407 -0.016147126 0.2753144 -0.037013296
0001b0 13 eb 3a bd 3f 9b a0 3b 4c e4 50 bc 92 ed 7c 3e
       -0.04563434 0.0049013193 -0.012749743 0.24700001
0001c0 20 17 1c 3d b4 ce c7 bc a1 4a 15 be c5 d9 66 bc
       0.03810799 -0.024390556 -0.1457925 -0.014090006
0001d0 90 87 92 bb 7b d0 24 3b 5d 9d c2 bc e6 ed b7 bc
       -0.0044717267 0.0025148678 -0.023756677 -0.022452306
0001e0 13 6b 8c 3d 80 20 4a ba c9 9b 1c bc 2c c8 2c bc
       0.0685636 -0.00077105314 -0.009558626 -0.010545772
0001f0 41 ae 85 3c f2 a8 5b 3e a4 7b bb bd 9c e7 70 3e
       0.016318442 0.21451166 -0.09154442 0.23525852
000200 f5 df 38 3d a7 2f 25 be cc b0 9d bc d4 e5 41 bd
       0.045135457 -0.16131459 -0.019249342 -0.04733832
000210 db 9f 54 bc 6b b4 d7 bc 2f e9 44 3e f2 e0 3f 3e
       -0.012977566 -0.026331147 0.19229577 0.18738154
000220 bc 25 bc bc 17 d4 2e bd 84 3c ff bc 71 1e ea 3c
       -0.022967212 -0.042682733 -0.031156786 0.028578969
000230 c9 ca 32 3c a3 fb 96 bc 94 5f fe 3a 39 45 10 3e
       0.010912606 -0.018430537 0.0019407147 0.14088906
000240 f8 4b f4 bc 7f b9 5b 3c 00 53 22 3c 5a 61 35 3d
       -0.029821381 0.013410925 0.009907484 0.044282295
000250 ee 5b 8e 3c 00 ba e5 bc f5 e8 c2 3c d2 93 3d 3c
       0.01737782 -0.028042793 0.023792723 0.011570888
000260 be ce 3e bc 87 a8 22 3d e2 86 9e bc d7 35 ec bc
       -0.011645971 0.0397115 -0.019351427 -0.028834267
000270 7f 08 b4 bc 7d 25 b7 bb 57 08 89 3b 32 1e 5c 3c
       -0.021976708 -0.0055891857 0.0041819024 0.0134349335
000280 ac 81 61 bc 1d da 8d 38 fb 46 e9 bc ec 3c 97 3c
       -0.013763826 6.764031e-05 -0.028476229 0.018461667
000290 3e 3c fa bc 84 29 3e 3d 03 16 8a bc c2 70 7a 3c
       -0.030546304 0.04642631 -0.0168562 0.015285673
0002a0 39 1a 6d 3c 15 6a 6f 3c b4 5c ad bc 1c 2c a8 bc
       0.014471584 0.014612694 -0.021162368 -0.020528845
0002b0 0f 6a e7 bd 5c ec 04 3b a5 4e d5 3c 4f f6 94 bc
       -0.11299526 0.0020282483 0.026038477 -0.018183855
0002c0 c1 5d 00 3d 3b 42 d7 bb 75 e1 e7 bd a6 cf 08 3d
       0.03133941 -0.0065691746 -0.113222994 0.033401154
0002d0 e2 d7 8f 3c 58 31 b9 3b 88 4c ff bc 21 b4 48 bd
       0.017558996 0.005651634 -0.031164423 -0.04899991
0002e0 0b 05 84 bd 48 a5 f3 3c 21 70 f0 bc e7 79 76 bc
       -0.06446274 0.029741898 -0.029350342 -0.015043712
0002f0 0f 1c 44 3d fb e4 09 3c b6 47 70 bb b4 42 9e 3b
       0.04787832 0.00841641 -0.0036663837 0.004829729
000300 21 3a c9 bc df 05 3a bd d0 86 38 bd 1f c7 bb be
       -0.02456385 -0.045415755 -0.045050442 -0.36675355
000310 bc 3c 6c 3c 20 ca 69 bc 45 68 f7 bd c1 7b 48 bc
       0.014418777 -0.014269382 -0.12080435 -0.0122365365
000320 c5 db 69 ba 50 68 cf 3c 97 80 9a bc 4f 11 26 bd
       -0.0008920993 0.025318295 -0.018860145 -0.04054385
000330 78 b6 c3 3c da 35 be bc 50 73 de bc bd b4 58 bc
       0.023890719 -0.023219038 -0.027154595 -0.013226685
000340 2c 2c a1 3c 98 31 c4 3d 09 4e 87 3d 82 ad 37 3e
       0.019674383 0.09579772 0.06606681 0.17937282
000350 5a 51 1d 3d f1 9c 89 bd 82 9b 96 3b ad 3f 19 3c
       0.03840766 -0.06719387 0.0045961747 0.00935356
000360 71 ba 13 bc ed cc dc bc 27 a9 eb 3c bd 53 98 3e
       -0.009016619 -0.026953185 0.028767182 0.29751387
000370 ba 97 0c b8 66 79 28 bd b6 4f d5 bc 75 e0 4e 3d
       -3.3519907e-05 -0.0411314 -0.026038986 0.050507028
000380 96 ec af be 1e a1 70 bc f5 6e 77 bc c2 9a 72 be
       -0.34360188 -0.014686851 -0.015102138 -0.23691848
000390 4b db b5 bb fe 0a 81 3e 6e d4 0d 3d d3 94 0d 3d
       -0.0055498234 0.252037 0.034626417 0.034565758
0003a0 c5 89 51 3b 56 8f 45 3b 4e de ff 3c 70 08 15 3d
       0.0031972986 0.003014525 0.031233933 0.036385
0003b0 33 ce 7a 3c d7 47 bd 3c 95 e6 69 bc 8e 71 f0 bc
       0.015307951 0.023105545 -0.014276166 -0.029351022
0003c0 31 0f 0e bc 34 50 a8 bc 4b 2a 89 3c 4e e7 bd 3c
       -0.008670614 -0.020546056 0.0167438 0.023181584
0003d0 6b e1 9f bb be 31 ee 3a 51 59 3e 3c 1e 56 63 3c
       -0.004879167 0.0018172783 0.011617974 0.013875512
0003e0 cc 7a ed bc b4 97 10 3c ec 3d 25 bb e0 2c 0f 3d
       -0.028989218 0.008825231 -0.002521391 0.034954906
0003f0 72 6c 31 3b ee 91 de 3b 9b db 8e be 46 f0 cb bc
       0.0027072695 0.0067922985 -0.2790192 -0.024894845

fc3.bias f4 [10]
000000 61 06 11 bf 50 87 f1 3d 35 01 9e bd eb 8c 1b bd
       -0.5665036 0.11793387 -0.07715074 -0.037976187
000010 01 18 0d be 27 1e 05 be 87 99 55 bf b6 b2 44 be
       -0.13778688 -0.12999783 -0.8343739 -0.19208798
000020 fe 01 56 3f f1 41 80 3e
       0.8359679 0.2505031
